{"format": "graph-model", "generatedBy": "2.19.0", "convertedBy": "TensorFlow.js Converter v4.22.0", "signature": {"outputs": {"Identity:0": {"name": "Identity:0"}}}, "modelTopology": {"node": [{"name": "model_57/tf.strided_slice_46/StridedSlice/begin", "op": "Const", "attr": {"value": {"tensor": {"dtype": "DT_INT32", "tensorShape": {"dim": [{"size": "4"}]}}}, "dtype": {"type": "DT_INT32"}}}, {"name": "model_57/tf.strided_slice_46/StridedSlice/end", "op": "Const", "attr": {"value": {"tensor": {"dtype": "DT_INT32", "tensorShape": {"dim": [{"size": "4"}]}}}, "dtype": {"type": "DT_INT32"}}}, {"name": "model_57/tf.strided_slice_46/ones_like", "op": "Const", "attr": {"value": {"tensor": {"dtype": "DT_INT32", "tensorShape": {"dim": [{"size": "4"}]}}}, "dtype": {"type": "DT_INT32"}}}, {"name": "model_57/tf.math.add_226/Add/y", "op": "Const", "attr": {"value": {"tensor": {"dtype": "DT_FLOAT", "tensorShape": {"dim": [{"size": "256"}]}}}, "dtype": {"type": "DT_FLOAT"}}}, {"name": "model_57/tf.math.add_219/Add/y", "op": "Const", "attr": {"value": {"tensor": {"dtype": "DT_FLOAT", "tensorShape": {"dim": [{"size": "256"}]}}}, "dtype": {"type": "DT_FLOAT"}}}, {"name": "model_57/tf.strided_slice_48/StridedSlice/begin", "op": "Const", "attr": {"value": {"tensor": {"dtype": "DT_INT32", "tensorShape": {"dim": [{"size": "4"}]}}}, "dtype": {"type": "DT_INT32"}}}, {"name": "model_57/tf.strided_slice_48/StridedSlice/end", "op": "Const", "attr": {"value": {"tensor": {"dtype": "DT_INT32", "tensorShape": {"dim": [{"size": "4"}]}}}, "dtype": {"type": "DT_INT32"}}}, {"name": "model_57/tf.strided_slice_48/ones_like", "op": "Const", "attr": {"value": {"tensor": {"dtype": "DT_INT32", "tensorShape": {"dim": [{"size": "4"}]}}}, "dtype": {"type": "DT_INT32"}}}, {"name": "model_57/tf.strided_slice_49/StridedSlice/begin", "op": "Const", "attr": {"value": {"tensor": {"dtype": "DT_INT32", "tensorShape": {"dim": [{"size": "4"}]}}}, "dtype": {"type": "DT_INT32"}}}, {"name": "model_57/tf.strided_slice_49/StridedSlice/end", "op": "Const", "attr": {"value": {"tensor": {"dtype": "DT_INT32", "tensorShape": {"dim": [{"size": "4"}]}}}, "dtype": {"type": "DT_INT32"}}}, {"name": "model_57/tf.strided_slice_49/ones_like", "op": "Const", "attr": {"value": {"tensor": {"dtype": "DT_INT32", "tensorShape": {"dim": [{"size": "4"}]}}}, "dtype": {"type": "DT_INT32"}}}, {"name": "model_57/tf.math.multiply_656/Mul/y", "op": "Const", "attr": {"value": {"tensor": {"dtype": "DT_FLOAT", "tensorShape": {}}}, "dtype": {"type": "DT_FLOAT"}}}, {"name": "model_57/tf.reshape_42/Reshape/shape", "op": "Const", "attr": {"value": {"tensor": {"dtype": "DT_INT32", "tensorShape": {"dim": [{"size": "4"}]}}}, "dtype": {"type": "DT_INT32"}}}, {"name": "model_57/tf.compat.v1.transpose_255/transpose/perm", "op": "Const", "attr": {"value": {"tensor": {"dtype": "DT_INT32", "tensorShape": {"dim": [{"size": "4"}]}}}, "dtype": {"type": "DT_INT32"}}}, {"name": "model_57/tf.nn.convolution_664/convolution/filter", "op": "Const", "attr": {"value": {"tensor": {"dtype": "DT_FLOAT", "tensorShape": {"dim": [{"size": "3"}, {"size": "3"}, {"size": "1"}, {"size": "1"}]}}}, "dtype": {"type": "DT_FLOAT"}}}, {"name": "model_57/tf.nn.convolution_665/convolution/filter", "op": "Const", "attr": {"value": {"tensor": {"dtype": "DT_FLOAT", "tensorShape": {"dim": [{"size": "3"}, {"size": "3"}, {"size": "1"}, {"size": "1"}]}}}, "dtype": {"type": "DT_FLOAT"}}}, {"name": "model_57/tf.nn.convolution_666/convolution/filter", "op": "Const", "attr": {"value": {"tensor": {"dtype": "DT_FLOAT", "tensorShape": {"dim": [{"size": "3"}, {"size": "3"}, {"size": "1"}, {"size": "1"}]}}}, "dtype": {"type": "DT_FLOAT"}}}, {"name": "model_57/tf.nn.convolution_667/convolution/filter", "op": "Const", "attr": {"value": {"tensor": {"dtype": "DT_FLOAT", "tensorShape": {"dim": [{"size": "3"}, {"size": "3"}, {"size": "1"}, {"size": "1"}]}}}, "dtype": {"type": "DT_FLOAT"}}}, {"name": "model_57/tf.nn.convolution_668/convolution/filter", "op": "Const", "attr": {"value": {"tensor": {"dtype": "DT_FLOAT", "tensorShape": {"dim": [{"size": "3"}, {"size": "3"}, {"size": "1"}, {"size": "1"}]}}}, "dtype": {"type": "DT_FLOAT"}}}, {"name": "model_57/tf.nn.convolution_669/convolution/filter", "op": "Const", "attr": {"value": {"tensor": {"dtype": "DT_FLOAT", "tensorShape": {"dim": [{"size": "3"}, {"size": "3"}, {"size": "1"}, {"size": "1"}]}}}, "dtype": {"type": "DT_FLOAT"}}}, {"name": "model_57/tf.nn.convolution_670/convolution/filter", "op": "Const", "attr": {"value": {"tensor": {"dtype": "DT_FLOAT", "tensorShape": {"dim": [{"size": "3"}, {"size": "3"}, {"size": "1"}, {"size": "1"}]}}}, "dtype": {"type": "DT_FLOAT"}}}, {"name": "model_57/tf.nn.convolution_671/convolution/filter", "op": "Const", "attr": {"value": {"tensor": {"dtype": "DT_FLOAT", "tensorShape": {"dim": [{"size": "3"}, {"size": "3"}, {"size": "1"}, {"size": "1"}]}}}, "dtype": {"type": "DT_FLOAT"}}}, {"name": "model_57/tf.nn.convolution_672/convolution/filter", "op": "Const", "attr": {"value": {"tensor": {"dtype": "DT_FLOAT", "tensorShape": {"dim": [{"size": "3"}, {"size": "3"}, {"size": "1"}, {"size": "1"}]}}}, "dtype": {"type": "DT_FLOAT"}}}, {"name": "model_57/tf.nn.convolution_673/convolution/filter", "op": "Const", "attr": {"value": {"tensor": {"dtype": "DT_FLOAT", "tensorShape": {"dim": [{"size": "3"}, {"size": "3"}, {"size": "1"}, {"size": "1"}]}}}, "dtype": {"type": "DT_FLOAT"}}}, {"name": "model_57/tf.nn.convolution_674/convolution/filter", "op": "Const", "attr": {"value": {"tensor": {"dtype": "DT_FLOAT", "tensorShape": {"dim": [{"size": "3"}, {"size": "3"}, {"size": "1"}, {"size": "1"}]}}}, "dtype": {"type": "DT_FLOAT"}}}, {"name": "model_57/tf.nn.convolution_675/convolution/filter", "op": "Const", "attr": {"value": {"tensor": {"dtype": "DT_FLOAT", "tensorShape": {"dim": [{"size": "3"}, {"size": "3"}, {"size": "1"}, {"size": "1"}]}}}, "dtype": {"type": "DT_FLOAT"}}}, {"name": "model_57/tf.nn.convolution_676/convolution/filter", "op": "Const", "attr": {"value": {"tensor": {"dtype": "DT_FLOAT", "tensorShape": {"dim": [{"size": "3"}, {"size": "3"}, {"size": "1"}, {"size": "1"}]}}}, "dtype": {"type": "DT_FLOAT"}}}, {"name": "model_57/tf.nn.convolution_677/convolution/filter", "op": "Const", "attr": {"value": {"tensor": {"dtype": "DT_FLOAT", "tensorShape": {"dim": [{"size": "3"}, {"size": "3"}, {"size": "1"}, {"size": "1"}]}}}, "dtype": {"type": "DT_FLOAT"}}}, {"name": "model_57/tf.nn.convolution_678/convolution/filter", "op": "Const", "attr": {"value": {"tensor": {"dtype": "DT_FLOAT", "tensorShape": {"dim": [{"size": "3"}, {"size": "3"}, {"size": "1"}, {"size": "1"}]}}}, "dtype": {"type": "DT_FLOAT"}}}, {"name": "model_57/tf.nn.convolution_679/convolution/filter", "op": "Const", "attr": {"value": {"tensor": {"dtype": "DT_FLOAT", "tensorShape": {"dim": [{"size": "3"}, {"size": "3"}, {"size": "1"}, {"size": "1"}]}}}, "dtype": {"type": "DT_FLOAT"}}}, {"name": "model_57/tf.nn.convolution_680/convolution/filter", "op": "Const", "attr": {"value": {"tensor": {"dtype": "DT_FLOAT", "tensorShape": {"dim": [{"size": "3"}, {"size": "3"}, {"size": "1"}, {"size": "1"}]}}}, "dtype": {"type": "DT_FLOAT"}}}, {"name": "model_57/tf.nn.convolution_681/convolution/filter", "op": "Const", "attr": {"value": {"tensor": {"dtype": "DT_FLOAT", "tensorShape": {"dim": [{"size": "3"}, {"size": "3"}, {"size": "1"}, {"size": "1"}]}}}, "dtype": {"type": "DT_FLOAT"}}}, {"name": "model_57/tf.nn.convolution_682/convolution/filter", "op": "Const", "attr": {"value": {"tensor": {"dtype": "DT_FLOAT", "tensorShape": {"dim": [{"size": "3"}, {"size": "3"}, {"size": "1"}, {"size": "1"}]}}}, "dtype": {"type": "DT_FLOAT"}}}, {"name": "model_57/tf.nn.convolution_683/convolution/filter", "op": "Const", "attr": {"value": {"tensor": {"dtype": "DT_FLOAT", "tensorShape": {"dim": [{"size": "3"}, {"size": "3"}, {"size": "1"}, {"size": "1"}]}}}, "dtype": {"type": "DT_FLOAT"}}}, {"name": "model_57/tf.nn.convolution_684/convolution/filter", "op": "Const", "attr": {"value": {"tensor": {"dtype": "DT_FLOAT", "tensorShape": {"dim": [{"size": "3"}, {"size": "3"}, {"size": "1"}, {"size": "1"}]}}}, "dtype": {"type": "DT_FLOAT"}}}, {"name": "model_57/tf.nn.convolution_685/convolution/filter", "op": "Const", "attr": {"value": {"tensor": {"dtype": "DT_FLOAT", "tensorShape": {"dim": [{"size": "3"}, {"size": "3"}, {"size": "1"}, {"size": "1"}]}}}, "dtype": {"type": "DT_FLOAT"}}}, {"name": "model_57/tf.nn.convolution_686/convolution/filter", "op": "Const", "attr": {"value": {"tensor": {"dtype": "DT_FLOAT", "tensorShape": {"dim": [{"size": "3"}, {"size": "3"}, {"size": "1"}, {"size": "1"}]}}}, "dtype": {"type": "DT_FLOAT"}}}, {"name": "model_57/tf.nn.convolution_687/convolution/filter", "op": "Const", "attr": {"value": {"tensor": {"dtype": "DT_FLOAT", "tensorShape": {"dim": [{"size": "3"}, {"size": "3"}, {"size": "1"}, {"size": "1"}]}}}, "dtype": {"type": "DT_FLOAT"}}}, {"name": "model_57/tf.nn.convolution_688/convolution/filter", "op": "Const", "attr": {"value": {"tensor": {"dtype": "DT_FLOAT", "tensorShape": {"dim": [{"size": "3"}, {"size": "3"}, {"size": "1"}, {"size": "1"}]}}}, "dtype": {"type": "DT_FLOAT"}}}, {"name": "model_57/tf.nn.convolution_689/convolution/filter", "op": "Const", "attr": {"value": {"tensor": {"dtype": "DT_FLOAT", "tensorShape": {"dim": [{"size": "3"}, {"size": "3"}, {"size": "1"}, {"size": "1"}]}}}, "dtype": {"type": "DT_FLOAT"}}}, {"name": "model_57/tf.nn.convolution_690/convolution/filter", "op": "Const", "attr": {"value": {"tensor": {"dtype": "DT_FLOAT", "tensorShape": {"dim": [{"size": "3"}, {"size": "3"}, {"size": "1"}, {"size": "1"}]}}}, "dtype": {"type": "DT_FLOAT"}}}, {"name": "model_57/tf.nn.convolution_691/convolution/filter", "op": "Const", "attr": {"value": {"tensor": {"dtype": "DT_FLOAT", "tensorShape": {"dim": [{"size": "3"}, {"size": "3"}, {"size": "1"}, {"size": "1"}]}}}, "dtype": {"type": "DT_FLOAT"}}}, {"name": "model_57/tf.nn.convolution_692/convolution/filter", "op": "Const", "attr": {"value": {"tensor": {"dtype": "DT_FLOAT", "tensorShape": {"dim": [{"size": "3"}, {"size": "3"}, {"size": "1"}, {"size": "1"}]}}}, "dtype": {"type": "DT_FLOAT"}}}, {"name": "model_57/tf.nn.convolution_693/convolution/filter", "op": "Const", "attr": {"value": {"tensor": {"dtype": "DT_FLOAT", "tensorShape": {"dim": [{"size": "3"}, {"size": "3"}, {"size": "1"}, {"size": "1"}]}}}, "dtype": {"type": "DT_FLOAT"}}}, {"name": "model_57/tf.nn.convolution_694/convolution/filter", "op": "Const", "attr": {"value": {"tensor": {"dtype": "DT_FLOAT", "tensorShape": {"dim": [{"size": "3"}, {"size": "3"}, {"size": "1"}, {"size": "1"}]}}}, "dtype": {"type": "DT_FLOAT"}}}, {"name": "model_57/tf.nn.convolution_695/convolution/filter", "op": "Const", "attr": {"value": {"tensor": {"dtype": "DT_FLOAT", "tensorShape": {"dim": [{"size": "3"}, {"size": "3"}, {"size": "1"}, {"size": "1"}]}}}, "dtype": {"type": "DT_FLOAT"}}}, {"name": "model_57/tf.nn.convolution_696/convolution/filter", "op": "Const", "attr": {"value": {"tensor": {"dtype": "DT_FLOAT", "tensorShape": {"dim": [{"size": "3"}, {"size": "3"}, {"size": "1"}, {"size": "1"}]}}}, "dtype": {"type": "DT_FLOAT"}}}, {"name": "model_57/tf.nn.convolution_697/convolution/filter", "op": "Const", "attr": {"value": {"tensor": {"dtype": "DT_FLOAT", "tensorShape": {"dim": [{"size": "3"}, {"size": "3"}, {"size": "1"}, {"size": "1"}]}}}, "dtype": {"type": "DT_FLOAT"}}}, {"name": "model_57/tf.nn.convolution_698/convolution/filter", "op": "Const", "attr": {"value": {"tensor": {"dtype": "DT_FLOAT", "tensorShape": {"dim": [{"size": "3"}, {"size": "3"}, {"size": "1"}, {"size": "1"}]}}}, "dtype": {"type": "DT_FLOAT"}}}, {"name": "model_57/tf.nn.convolution_699/convolution/filter", "op": "Const", "attr": {"value": {"tensor": {"dtype": "DT_FLOAT", "tensorShape": {"dim": [{"size": "3"}, {"size": "3"}, {"size": "1"}, {"size": "1"}]}}}, "dtype": {"type": "DT_FLOAT"}}}, {"name": "model_57/tf.nn.convolution_700/convolution/filter", "op": "Const", "attr": {"value": {"tensor": {"dtype": "DT_FLOAT", "tensorShape": {"dim": [{"size": "3"}, {"size": "3"}, {"size": "1"}, {"size": "1"}]}}}, "dtype": {"type": "DT_FLOAT"}}}, {"name": "model_57/tf.nn.convolution_701/convolution/filter", "op": "Const", "attr": {"value": {"tensor": {"dtype": "DT_FLOAT", "tensorShape": {"dim": [{"size": "3"}, {"size": "3"}, {"size": "1"}, {"size": "1"}]}}}, "dtype": {"type": "DT_FLOAT"}}}, {"name": "model_57/tf.nn.convolution_702/convolution/filter", "op": "Const", "attr": {"value": {"tensor": {"dtype": "DT_FLOAT", "tensorShape": {"dim": [{"size": "3"}, {"size": "3"}, {"size": "1"}, {"size": "1"}]}}}, "dtype": {"type": "DT_FLOAT"}}}, {"name": "model_57/tf.nn.convolution_703/convolution/filter", "op": "Const", "attr": {"value": {"tensor": {"dtype": "DT_FLOAT", "tensorShape": {"dim": [{"size": "3"}, {"size": "3"}, {"size": "1"}, {"size": "1"}]}}}, "dtype": {"type": "DT_FLOAT"}}}, {"name": "model_57/tf.nn.convolution_704/convolution/filter", "op": "Const", "attr": {"value": {"tensor": {"dtype": "DT_FLOAT", "tensorShape": {"dim": [{"size": "3"}, {"size": "3"}, {"size": "1"}, {"size": "1"}]}}}, "dtype": {"type": "DT_FLOAT"}}}, {"name": "model_57/tf.nn.convolution_705/convolution/filter", "op": "Const", "attr": {"value": {"tensor": {"dtype": "DT_FLOAT", "tensorShape": {"dim": [{"size": "3"}, {"size": "3"}, {"size": "1"}, {"size": "1"}]}}}, "dtype": {"type": "DT_FLOAT"}}}, {"name": "model_57/tf.nn.convolution_706/convolution/filter", "op": "Const", "attr": {"value": {"tensor": {"dtype": "DT_FLOAT", "tensorShape": {"dim": [{"size": "3"}, {"size": "3"}, {"size": "1"}, {"size": "1"}]}}}, "dtype": {"type": "DT_FLOAT"}}}, {"name": "model_57/tf.nn.convolution_707/convolution/filter", "op": "Const", "attr": {"value": {"tensor": {"dtype": "DT_FLOAT", "tensorShape": {"dim": [{"size": "3"}, {"size": "3"}, {"size": "1"}, {"size": "1"}]}}}, "dtype": {"type": "DT_FLOAT"}}}, {"name": "model_57/tf.nn.convolution_708/convolution/filter", "op": "Const", "attr": {"value": {"tensor": {"dtype": "DT_FLOAT", "tensorShape": {"dim": [{"size": "3"}, {"size": "3"}, {"size": "1"}, {"size": "1"}]}}}, "dtype": {"type": "DT_FLOAT"}}}, {"name": "model_57/tf.nn.convolution_709/convolution/filter", "op": "Const", "attr": {"value": {"tensor": {"dtype": "DT_FLOAT", "tensorShape": {"dim": [{"size": "3"}, {"size": "3"}, {"size": "1"}, {"size": "1"}]}}}, "dtype": {"type": "DT_FLOAT"}}}, {"name": "model_57/tf.nn.convolution_710/convolution/filter", "op": "Const", "attr": {"value": {"tensor": {"dtype": "DT_FLOAT", "tensorShape": {"dim": [{"size": "3"}, {"size": "3"}, {"size": "1"}, {"size": "1"}]}}}, "dtype": {"type": "DT_FLOAT"}}}, {"name": "model_57/tf.nn.convolution_711/convolution/filter", "op": "Const", "attr": {"value": {"tensor": {"dtype": "DT_FLOAT", "tensorShape": {"dim": [{"size": "3"}, {"size": "3"}, {"size": "1"}, {"size": "1"}]}}}, "dtype": {"type": "DT_FLOAT"}}}, {"name": "model_57/tf.nn.convolution_712/convolution/filter", "op": "Const", "attr": {"value": {"tensor": {"dtype": "DT_FLOAT", "tensorShape": {"dim": [{"size": "3"}, {"size": "3"}, {"size": "1"}, {"size": "1"}]}}}, "dtype": {"type": "DT_FLOAT"}}}, {"name": "model_57/tf.nn.convolution_713/convolution/filter", "op": "Const", "attr": {"value": {"tensor": {"dtype": "DT_FLOAT", "tensorShape": {"dim": [{"size": "3"}, {"size": "3"}, {"size": "1"}, {"size": "1"}]}}}, "dtype": {"type": "DT_FLOAT"}}}, {"name": "model_57/tf.nn.convolution_714/convolution/filter", "op": "Const", "attr": {"value": {"tensor": {"dtype": "DT_FLOAT", "tensorShape": {"dim": [{"size": "3"}, {"size": "3"}, {"size": "1"}, {"size": "1"}]}}}, "dtype": {"type": "DT_FLOAT"}}}, {"name": "model_57/tf.nn.convolution_715/convolution/filter", "op": "Const", "attr": {"value": {"tensor": {"dtype": "DT_FLOAT", "tensorShape": {"dim": [{"size": "3"}, {"size": "3"}, {"size": "1"}, {"size": "1"}]}}}, "dtype": {"type": "DT_FLOAT"}}}, {"name": "model_57/tf.nn.convolution_716/convolution/filter", "op": "Const", "attr": {"value": {"tensor": {"dtype": "DT_FLOAT", "tensorShape": {"dim": [{"size": "3"}, {"size": "3"}, {"size": "1"}, {"size": "1"}]}}}, "dtype": {"type": "DT_FLOAT"}}}, {"name": "model_57/tf.nn.convolution_717/convolution/filter", "op": "Const", "attr": {"value": {"tensor": {"dtype": "DT_FLOAT", "tensorShape": {"dim": [{"size": "3"}, {"size": "3"}, {"size": "1"}, {"size": "1"}]}}}, "dtype": {"type": "DT_FLOAT"}}}, {"name": "model_57/tf.nn.convolution_718/convolution/filter", "op": "Const", "attr": {"value": {"tensor": {"dtype": "DT_FLOAT", "tensorShape": {"dim": [{"size": "3"}, {"size": "3"}, {"size": "1"}, {"size": "1"}]}}}, "dtype": {"type": "DT_FLOAT"}}}, {"name": "model_57/tf.nn.convolution_719/convolution/filter", "op": "Const", "attr": {"value": {"tensor": {"dtype": "DT_FLOAT", "tensorShape": {"dim": [{"size": "3"}, {"size": "3"}, {"size": "1"}, {"size": "1"}]}}}, "dtype": {"type": "DT_FLOAT"}}}, {"name": "model_57/tf.nn.convolution_720/convolution/filter", "op": "Const", "attr": {"value": {"tensor": {"dtype": "DT_FLOAT", "tensorShape": {"dim": [{"size": "3"}, {"size": "3"}, {"size": "1"}, {"size": "1"}]}}}, "dtype": {"type": "DT_FLOAT"}}}, {"name": "model_57/tf.nn.convolution_721/convolution/filter", "op": "Const", "attr": {"value": {"tensor": {"dtype": "DT_FLOAT", "tensorShape": {"dim": [{"size": "3"}, {"size": "3"}, {"size": "1"}, {"size": "1"}]}}}, "dtype": {"type": "DT_FLOAT"}}}, {"name": "model_57/tf.nn.convolution_722/convolution/filter", "op": "Const", "attr": {"value": {"tensor": {"dtype": "DT_FLOAT", "tensorShape": {"dim": [{"size": "3"}, {"size": "3"}, {"size": "1"}, {"size": "1"}]}}}, "dtype": {"type": "DT_FLOAT"}}}, {"name": "model_57/tf.nn.convolution_723/convolution/filter", "op": "Const", "attr": {"value": {"tensor": {"dtype": "DT_FLOAT", "tensorShape": {"dim": [{"size": "3"}, {"size": "3"}, {"size": "1"}, {"size": "1"}]}}}, "dtype": {"type": "DT_FLOAT"}}}, {"name": "model_57/tf.nn.convolution_724/convolution/filter", "op": "Const", "attr": {"value": {"tensor": {"dtype": "DT_FLOAT", "tensorShape": {"dim": [{"size": "3"}, {"size": "3"}, {"size": "1"}, {"size": "1"}]}}}, "dtype": {"type": "DT_FLOAT"}}}, {"name": "model_57/tf.nn.convolution_725/convolution/filter", "op": "Const", "attr": {"value": {"tensor": {"dtype": "DT_FLOAT", "tensorShape": {"dim": [{"size": "3"}, {"size": "3"}, {"size": "1"}, {"size": "1"}]}}}, "dtype": {"type": "DT_FLOAT"}}}, {"name": "model_57/tf.nn.convolution_726/convolution/filter", "op": "Const", "attr": {"value": {"tensor": {"dtype": "DT_FLOAT", "tensorShape": {"dim": [{"size": "3"}, {"size": "3"}, {"size": "1"}, {"size": "1"}]}}}, "dtype": {"type": "DT_FLOAT"}}}, {"name": "model_57/tf.nn.convolution_727/convolution/filter", "op": "Const", "attr": {"value": {"tensor": {"dtype": "DT_FLOAT", "tensorShape": {"dim": [{"size": "3"}, {"size": "3"}, {"size": "1"}, {"size": "1"}]}}}, "dtype": {"type": "DT_FLOAT"}}}, {"name": "model_57/tf.nn.convolution_728/convolution/filter", "op": "Const", "attr": {"value": {"tensor": {"dtype": "DT_FLOAT", "tensorShape": {"dim": [{"size": "3"}, {"size": "3"}, {"size": "1"}, {"size": "1"}]}}}, "dtype": {"type": "DT_FLOAT"}}}, {"name": "model_57/tf.nn.convolution_729/convolution/filter", "op": "Const", "attr": {"value": {"tensor": {"dtype": "DT_FLOAT", "tensorShape": {"dim": [{"size": "3"}, {"size": "3"}, {"size": "1"}, {"size": "1"}]}}}, "dtype": {"type": "DT_FLOAT"}}}, {"name": "model_57/tf.nn.convolution_730/convolution/filter", "op": "Const", "attr": {"value": {"tensor": {"dtype": "DT_FLOAT", "tensorShape": {"dim": [{"size": "3"}, {"size": "3"}, {"size": "1"}, {"size": "1"}]}}}, "dtype": {"type": "DT_FLOAT"}}}, {"name": "model_57/tf.nn.convolution_731/convolution/filter", "op": "Const", "attr": {"value": {"tensor": {"dtype": "DT_FLOAT", "tensorShape": {"dim": [{"size": "3"}, {"size": "3"}, {"size": "1"}, {"size": "1"}]}}}, "dtype": {"type": "DT_FLOAT"}}}, {"name": "model_57/tf.nn.convolution_732/convolution/filter", "op": "Const", "attr": {"value": {"tensor": {"dtype": "DT_FLOAT", "tensorShape": {"dim": [{"size": "3"}, {"size": "3"}, {"size": "1"}, {"size": "1"}]}}}, "dtype": {"type": "DT_FLOAT"}}}, {"name": "model_57/tf.nn.convolution_733/convolution/filter", "op": "Const", "attr": {"value": {"tensor": {"dtype": "DT_FLOAT", "tensorShape": {"dim": [{"size": "3"}, {"size": "3"}, {"size": "1"}, {"size": "1"}]}}}, "dtype": {"type": "DT_FLOAT"}}}, {"name": "model_57/tf.nn.convolution_734/convolution/filter", "op": "Const", "attr": {"value": {"tensor": {"dtype": "DT_FLOAT", "tensorShape": {"dim": [{"size": "3"}, {"size": "3"}, {"size": "1"}, {"size": "1"}]}}}, "dtype": {"type": "DT_FLOAT"}}}, {"name": "model_57/tf.nn.convolution_735/convolution/filter", "op": "Const", "attr": {"value": {"tensor": {"dtype": "DT_FLOAT", "tensorShape": {"dim": [{"size": "3"}, {"size": "3"}, {"size": "1"}, {"size": "1"}]}}}, "dtype": {"type": "DT_FLOAT"}}}, {"name": "model_57/tf.nn.convolution_736/convolution/filter", "op": "Const", "attr": {"value": {"tensor": {"dtype": "DT_FLOAT", "tensorShape": {"dim": [{"size": "3"}, {"size": "3"}, {"size": "1"}, {"size": "1"}]}}}, "dtype": {"type": "DT_FLOAT"}}}, {"name": "model_57/tf.nn.convolution_737/convolution/filter", "op": "Const", "attr": {"value": {"tensor": {"dtype": "DT_FLOAT", "tensorShape": {"dim": [{"size": "3"}, {"size": "3"}, {"size": "1"}, {"size": "1"}]}}}, "dtype": {"type": "DT_FLOAT"}}}, {"name": "model_57/tf.nn.convolution_738/convolution/filter", "op": "Const", "attr": {"value": {"tensor": {"dtype": "DT_FLOAT", "tensorShape": {"dim": [{"size": "3"}, {"size": "3"}, {"size": "1"}, {"size": "1"}]}}}, "dtype": {"type": "DT_FLOAT"}}}, {"name": "model_57/tf.nn.convolution_739/convolution/filter", "op": "Const", "attr": {"value": {"tensor": {"dtype": "DT_FLOAT", "tensorShape": {"dim": [{"size": "3"}, {"size": "3"}, {"size": "1"}, {"size": "1"}]}}}, "dtype": {"type": "DT_FLOAT"}}}, {"name": "model_57/tf.nn.convolution_740/convolution/filter", "op": "Const", "attr": {"value": {"tensor": {"dtype": "DT_FLOAT", "tensorShape": {"dim": [{"size": "3"}, {"size": "3"}, {"size": "1"}, {"size": "1"}]}}}, "dtype": {"type": "DT_FLOAT"}}}, {"name": "model_57/tf.nn.convolution_741/convolution/filter", "op": "Const", "attr": {"value": {"tensor": {"dtype": "DT_FLOAT", "tensorShape": {"dim": [{"size": "3"}, {"size": "3"}, {"size": "1"}, {"size": "1"}]}}}, "dtype": {"type": "DT_FLOAT"}}}, {"name": "model_57/tf.nn.convolution_742/convolution/filter", "op": "Const", "attr": {"value": {"tensor": {"dtype": "DT_FLOAT", "tensorShape": {"dim": [{"size": "3"}, {"size": "3"}, {"size": "1"}, {"size": "1"}]}}}, "dtype": {"type": "DT_FLOAT"}}}, {"name": "model_57/tf.nn.convolution_743/convolution/filter", "op": "Const", "attr": {"value": {"tensor": {"dtype": "DT_FLOAT", "tensorShape": {"dim": [{"size": "3"}, {"size": "3"}, {"size": "1"}, {"size": "1"}]}}}, "dtype": {"type": "DT_FLOAT"}}}, {"name": "model_57/tf.nn.convolution_744/convolution/filter", "op": "Const", "attr": {"value": {"tensor": {"dtype": "DT_FLOAT", "tensorShape": {"dim": [{"size": "3"}, {"size": "3"}, {"size": "1"}, {"size": "1"}]}}}, "dtype": {"type": "DT_FLOAT"}}}, {"name": "model_57/tf.nn.convolution_745/convolution/filter", "op": "Const", "attr": {"value": {"tensor": {"dtype": "DT_FLOAT", "tensorShape": {"dim": [{"size": "3"}, {"size": "3"}, {"size": "1"}, {"size": "1"}]}}}, "dtype": {"type": "DT_FLOAT"}}}, {"name": "model_57/tf.nn.convolution_746/convolution/filter", "op": "Const", "attr": {"value": {"tensor": {"dtype": "DT_FLOAT", "tensorShape": {"dim": [{"size": "3"}, {"size": "3"}, {"size": "1"}, {"size": "1"}]}}}, "dtype": {"type": "DT_FLOAT"}}}, {"name": "model_57/tf.nn.convolution_747/convolution/filter", "op": "Const", "attr": {"value": {"tensor": {"dtype": "DT_FLOAT", "tensorShape": {"dim": [{"size": "3"}, {"size": "3"}, {"size": "1"}, {"size": "1"}]}}}, "dtype": {"type": "DT_FLOAT"}}}, {"name": "model_57/tf.nn.convolution_748/convolution/filter", "op": "Const", "attr": {"value": {"tensor": {"dtype": "DT_FLOAT", "tensorShape": {"dim": [{"size": "3"}, {"size": "3"}, {"size": "1"}, {"size": "1"}]}}}, "dtype": {"type": "DT_FLOAT"}}}, {"name": "model_57/tf.nn.convolution_749/convolution/filter", "op": "Const", "attr": {"value": {"tensor": {"dtype": "DT_FLOAT", "tensorShape": {"dim": [{"size": "3"}, {"size": "3"}, {"size": "1"}, {"size": "1"}]}}}, "dtype": {"type": "DT_FLOAT"}}}, {"name": "model_57/tf.nn.convolution_750/convolution/filter", "op": "Const", "attr": {"value": {"tensor": {"dtype": "DT_FLOAT", "tensorShape": {"dim": [{"size": "3"}, {"size": "3"}, {"size": "1"}, {"size": "1"}]}}}, "dtype": {"type": "DT_FLOAT"}}}, {"name": "model_57/tf.nn.convolution_751/convolution/filter", "op": "Const", "attr": {"value": {"tensor": {"dtype": "DT_FLOAT", "tensorShape": {"dim": [{"size": "3"}, {"size": "3"}, {"size": "1"}, {"size": "1"}]}}}, "dtype": {"type": "DT_FLOAT"}}}, {"name": "model_57/tf.nn.convolution_752/convolution/filter", "op": "Const", "attr": {"value": {"tensor": {"dtype": "DT_FLOAT", "tensorShape": {"dim": [{"size": "3"}, {"size": "3"}, {"size": "1"}, {"size": "1"}]}}}, "dtype": {"type": "DT_FLOAT"}}}, {"name": "model_57/tf.nn.convolution_753/convolution/filter", "op": "Const", "attr": {"value": {"tensor": {"dtype": "DT_FLOAT", "tensorShape": {"dim": [{"size": "3"}, {"size": "3"}, {"size": "1"}, {"size": "1"}]}}}, "dtype": {"type": "DT_FLOAT"}}}, {"name": "model_57/tf.nn.convolution_754/convolution/filter", "op": "Const", "attr": {"value": {"tensor": {"dtype": "DT_FLOAT", "tensorShape": {"dim": [{"size": "3"}, {"size": "3"}, {"size": "1"}, {"size": "1"}]}}}, "dtype": {"type": "DT_FLOAT"}}}, {"name": "model_57/tf.nn.convolution_755/convolution/filter", "op": "Const", "attr": {"value": {"tensor": {"dtype": "DT_FLOAT", "tensorShape": {"dim": [{"size": "3"}, {"size": "3"}, {"size": "1"}, {"size": "1"}]}}}, "dtype": {"type": "DT_FLOAT"}}}, {"name": "model_57/tf.nn.convolution_756/convolution/filter", "op": "Const", "attr": {"value": {"tensor": {"dtype": "DT_FLOAT", "tensorShape": {"dim": [{"size": "3"}, {"size": "3"}, {"size": "1"}, {"size": "1"}]}}}, "dtype": {"type": "DT_FLOAT"}}}, {"name": "model_57/tf.nn.convolution_757/convolution/filter", "op": "Const", "attr": {"value": {"tensor": {"dtype": "DT_FLOAT", "tensorShape": {"dim": [{"size": "3"}, {"size": "3"}, {"size": "1"}, {"size": "1"}]}}}, "dtype": {"type": "DT_FLOAT"}}}, {"name": "model_57/tf.nn.convolution_758/convolution/filter", "op": "Const", "attr": {"value": {"tensor": {"dtype": "DT_FLOAT", "tensorShape": {"dim": [{"size": "3"}, {"size": "3"}, {"size": "1"}, {"size": "1"}]}}}, "dtype": {"type": "DT_FLOAT"}}}, {"name": "model_57/tf.nn.convolution_759/convolution/filter", "op": "Const", "attr": {"value": {"tensor": {"dtype": "DT_FLOAT", "tensorShape": {"dim": [{"size": "3"}, {"size": "3"}, {"size": "1"}, {"size": "1"}]}}}, "dtype": {"type": "DT_FLOAT"}}}, {"name": "model_57/tf.nn.convolution_760/convolution/filter", "op": "Const", "attr": {"value": {"tensor": {"dtype": "DT_FLOAT", "tensorShape": {"dim": [{"size": "3"}, {"size": "3"}, {"size": "1"}, {"size": "1"}]}}}, "dtype": {"type": "DT_FLOAT"}}}, {"name": "model_57/tf.nn.convolution_761/convolution/filter", "op": "Const", "attr": {"value": {"tensor": {"dtype": "DT_FLOAT", "tensorShape": {"dim": [{"size": "3"}, {"size": "3"}, {"size": "1"}, {"size": "1"}]}}}, "dtype": {"type": "DT_FLOAT"}}}, {"name": "model_57/tf.nn.convolution_762/convolution/filter", "op": "Const", "attr": {"value": {"tensor": {"dtype": "DT_FLOAT", "tensorShape": {"dim": [{"size": "3"}, {"size": "3"}, {"size": "1"}, {"size": "1"}]}}}, "dtype": {"type": "DT_FLOAT"}}}, {"name": "model_57/tf.nn.convolution_763/convolution/filter", "op": "Const", "attr": {"value": {"tensor": {"dtype": "DT_FLOAT", "tensorShape": {"dim": [{"size": "3"}, {"size": "3"}, {"size": "1"}, {"size": "1"}]}}}, "dtype": {"type": "DT_FLOAT"}}}, {"name": "model_57/tf.nn.convolution_764/convolution/filter", "op": "Const", "attr": {"value": {"tensor": {"dtype": "DT_FLOAT", "tensorShape": {"dim": [{"size": "3"}, {"size": "3"}, {"size": "1"}, {"size": "1"}]}}}, "dtype": {"type": "DT_FLOAT"}}}, {"name": "model_57/tf.nn.convolution_765/convolution/filter", "op": "Const", "attr": {"value": {"tensor": {"dtype": "DT_FLOAT", "tensorShape": {"dim": [{"size": "3"}, {"size": "3"}, {"size": "1"}, {"size": "1"}]}}}, "dtype": {"type": "DT_FLOAT"}}}, {"name": "model_57/tf.nn.convolution_766/convolution/filter", "op": "Const", "attr": {"value": {"tensor": {"dtype": "DT_FLOAT", "tensorShape": {"dim": [{"size": "3"}, {"size": "3"}, {"size": "1"}, {"size": "1"}]}}}, "dtype": {"type": "DT_FLOAT"}}}, {"name": "model_57/tf.nn.convolution_767/convolution/filter", "op": "Const", "attr": {"value": {"tensor": {"dtype": "DT_FLOAT", "tensorShape": {"dim": [{"size": "3"}, {"size": "3"}, {"size": "1"}, {"size": "1"}]}}}, "dtype": {"type": "DT_FLOAT"}}}, {"name": "model_57/tf.nn.convolution_768/convolution/filter", "op": "Const", "attr": {"value": {"tensor": {"dtype": "DT_FLOAT", "tensorShape": {"dim": [{"size": "3"}, {"size": "3"}, {"size": "1"}, {"size": "1"}]}}}, "dtype": {"type": "DT_FLOAT"}}}, {"name": "model_57/tf.nn.convolution_769/convolution/filter", "op": "Const", "attr": {"value": {"tensor": {"dtype": "DT_FLOAT", "tensorShape": {"dim": [{"size": "3"}, {"size": "3"}, {"size": "1"}, {"size": "1"}]}}}, "dtype": {"type": "DT_FLOAT"}}}, {"name": "model_57/tf.nn.convolution_770/convolution/filter", "op": "Const", "attr": {"value": {"tensor": {"dtype": "DT_FLOAT", "tensorShape": {"dim": [{"size": "3"}, {"size": "3"}, {"size": "1"}, {"size": "1"}]}}}, "dtype": {"type": "DT_FLOAT"}}}, {"name": "model_57/tf.nn.convolution_771/convolution/filter", "op": "Const", "attr": {"value": {"tensor": {"dtype": "DT_FLOAT", "tensorShape": {"dim": [{"size": "3"}, {"size": "3"}, {"size": "1"}, {"size": "1"}]}}}, "dtype": {"type": "DT_FLOAT"}}}, {"name": "model_57/tf.nn.convolution_772/convolution/filter", "op": "Const", "attr": {"value": {"tensor": {"dtype": "DT_FLOAT", "tensorShape": {"dim": [{"size": "3"}, {"size": "3"}, {"size": "1"}, {"size": "1"}]}}}, "dtype": {"type": "DT_FLOAT"}}}, {"name": "model_57/tf.nn.convolution_773/convolution/filter", "op": "Const", "attr": {"value": {"tensor": {"dtype": "DT_FLOAT", "tensorShape": {"dim": [{"size": "3"}, {"size": "3"}, {"size": "1"}, {"size": "1"}]}}}, "dtype": {"type": "DT_FLOAT"}}}, {"name": "model_57/tf.nn.convolution_774/convolution/filter", "op": "Const", "attr": {"value": {"tensor": {"dtype": "DT_FLOAT", "tensorShape": {"dim": [{"size": "3"}, {"size": "3"}, {"size": "1"}, {"size": "1"}]}}}, "dtype": {"type": "DT_FLOAT"}}}, {"name": "model_57/tf.nn.convolution_775/convolution/filter", "op": "Const", "attr": {"value": {"tensor": {"dtype": "DT_FLOAT", "tensorShape": {"dim": [{"size": "3"}, {"size": "3"}, {"size": "1"}, {"size": "1"}]}}}, "dtype": {"type": "DT_FLOAT"}}}, {"name": "model_57/tf.nn.convolution_776/convolution/filter", "op": "Const", "attr": {"value": {"tensor": {"dtype": "DT_FLOAT", "tensorShape": {"dim": [{"size": "3"}, {"size": "3"}, {"size": "1"}, {"size": "1"}]}}}, "dtype": {"type": "DT_FLOAT"}}}, {"name": "model_57/tf.nn.convolution_777/convolution/filter", "op": "Const", "attr": {"value": {"tensor": {"dtype": "DT_FLOAT", "tensorShape": {"dim": [{"size": "3"}, {"size": "3"}, {"size": "1"}, {"size": "1"}]}}}, "dtype": {"type": "DT_FLOAT"}}}, {"name": "model_57/tf.nn.convolution_778/convolution/filter", "op": "Const", "attr": {"value": {"tensor": {"dtype": "DT_FLOAT", "tensorShape": {"dim": [{"size": "3"}, {"size": "3"}, {"size": "1"}, {"size": "1"}]}}}, "dtype": {"type": "DT_FLOAT"}}}, {"name": "model_57/tf.nn.convolution_779/convolution/filter", "op": "Const", "attr": {"value": {"tensor": {"dtype": "DT_FLOAT", "tensorShape": {"dim": [{"size": "3"}, {"size": "3"}, {"size": "1"}, {"size": "1"}]}}}, "dtype": {"type": "DT_FLOAT"}}}, {"name": "model_57/tf.nn.convolution_780/convolution/filter", "op": "Const", "attr": {"value": {"tensor": {"dtype": "DT_FLOAT", "tensorShape": {"dim": [{"size": "3"}, {"size": "3"}, {"size": "1"}, {"size": "1"}]}}}, "dtype": {"type": "DT_FLOAT"}}}, {"name": "model_57/tf.nn.convolution_781/convolution/filter", "op": "Const", "attr": {"value": {"tensor": {"dtype": "DT_FLOAT", "tensorShape": {"dim": [{"size": "3"}, {"size": "3"}, {"size": "1"}, {"size": "1"}]}}}, "dtype": {"type": "DT_FLOAT"}}}, {"name": "model_57/tf.nn.convolution_782/convolution/filter", "op": "Const", "attr": {"value": {"tensor": {"dtype": "DT_FLOAT", "tensorShape": {"dim": [{"size": "3"}, {"size": "3"}, {"size": "1"}, {"size": "1"}]}}}, "dtype": {"type": "DT_FLOAT"}}}, {"name": "model_57/tf.nn.convolution_783/convolution/filter", "op": "Const", "attr": {"value": {"tensor": {"dtype": "DT_FLOAT", "tensorShape": {"dim": [{"size": "3"}, {"size": "3"}, {"size": "1"}, {"size": "1"}]}}}, "dtype": {"type": "DT_FLOAT"}}}, {"name": "model_57/tf.nn.convolution_784/convolution/filter", "op": "Const", "attr": {"value": {"tensor": {"dtype": "DT_FLOAT", "tensorShape": {"dim": [{"size": "3"}, {"size": "3"}, {"size": "1"}, {"size": "1"}]}}}, "dtype": {"type": "DT_FLOAT"}}}, {"name": "model_57/tf.nn.convolution_785/convolution/filter", "op": "Const", "attr": {"value": {"tensor": {"dtype": "DT_FLOAT", "tensorShape": {"dim": [{"size": "3"}, {"size": "3"}, {"size": "1"}, {"size": "1"}]}}}, "dtype": {"type": "DT_FLOAT"}}}, {"name": "model_57/tf.nn.convolution_786/convolution/filter", "op": "Const", "attr": {"value": {"tensor": {"dtype": "DT_FLOAT", "tensorShape": {"dim": [{"size": "3"}, {"size": "3"}, {"size": "1"}, {"size": "1"}]}}}, "dtype": {"type": "DT_FLOAT"}}}, {"name": "model_57/tf.nn.convolution_787/convolution/filter", "op": "Const", "attr": {"value": {"tensor": {"dtype": "DT_FLOAT", "tensorShape": {"dim": [{"size": "3"}, {"size": "3"}, {"size": "1"}, {"size": "1"}]}}}, "dtype": {"type": "DT_FLOAT"}}}, {"name": "model_57/tf.nn.convolution_788/convolution/filter", "op": "Const", "attr": {"value": {"tensor": {"dtype": "DT_FLOAT", "tensorShape": {"dim": [{"size": "3"}, {"size": "3"}, {"size": "1"}, {"size": "1"}]}}}, "dtype": {"type": "DT_FLOAT"}}}, {"name": "model_57/tf.nn.convolution_789/convolution/filter", "op": "Const", "attr": {"value": {"tensor": {"dtype": "DT_FLOAT", "tensorShape": {"dim": [{"size": "3"}, {"size": "3"}, {"size": "1"}, {"size": "1"}]}}}, "dtype": {"type": "DT_FLOAT"}}}, {"name": "model_57/tf.nn.convolution_790/convolution/filter", "op": "Const", "attr": {"value": {"tensor": {"dtype": "DT_FLOAT", "tensorShape": {"dim": [{"size": "3"}, {"size": "3"}, {"size": "1"}, {"size": "1"}]}}}, "dtype": {"type": "DT_FLOAT"}}}, {"name": "model_57/tf.nn.convolution_791/convolution/filter", "op": "Const", "attr": {"value": {"tensor": {"dtype": "DT_FLOAT", "tensorShape": {"dim": [{"size": "3"}, {"size": "3"}, {"size": "1"}, {"size": "1"}]}}}, "dtype": {"type": "DT_FLOAT"}}}, {"name": "model_57/tf.nn.convolution_792/convolution/filter", "op": "Const", "attr": {"value": {"tensor": {"dtype": "DT_FLOAT", "tensorShape": {"dim": [{"size": "3"}, {"size": "3"}, {"size": "1"}, {"size": "1"}]}}}, "dtype": {"type": "DT_FLOAT"}}}, {"name": "model_57/tf.nn.convolution_793/convolution/filter", "op": "Const", "attr": {"value": {"tensor": {"dtype": "DT_FLOAT", "tensorShape": {"dim": [{"size": "3"}, {"size": "3"}, {"size": "1"}, {"size": "1"}]}}}, "dtype": {"type": "DT_FLOAT"}}}, {"name": "model_57/tf.nn.convolution_794/convolution/filter", "op": "Const", "attr": {"value": {"tensor": {"dtype": "DT_FLOAT", "tensorShape": {"dim": [{"size": "3"}, {"size": "3"}, {"size": "1"}, {"size": "1"}]}}}, "dtype": {"type": "DT_FLOAT"}}}, {"name": "model_57/tf.nn.convolution_795/convolution/filter", "op": "Const", "attr": {"value": {"tensor": {"dtype": "DT_FLOAT", "tensorShape": {"dim": [{"size": "3"}, {"size": "3"}, {"size": "1"}, {"size": "1"}]}}}, "dtype": {"type": "DT_FLOAT"}}}, {"name": "model_57/tf.nn.convolution_796/convolution/filter", "op": "Const", "attr": {"value": {"tensor": {"dtype": "DT_FLOAT", "tensorShape": {"dim": [{"size": "3"}, {"size": "3"}, {"size": "1"}, {"size": "1"}]}}}, "dtype": {"type": "DT_FLOAT"}}}, {"name": "model_57/tf.nn.convolution_797/convolution/filter", "op": "Const", "attr": {"value": {"tensor": {"dtype": "DT_FLOAT", "tensorShape": {"dim": [{"size": "3"}, {"size": "3"}, {"size": "1"}, {"size": "1"}]}}}, "dtype": {"type": "DT_FLOAT"}}}, {"name": "model_57/tf.nn.convolution_798/convolution/filter", "op": "Const", "attr": {"value": {"tensor": {"dtype": "DT_FLOAT", "tensorShape": {"dim": [{"size": "3"}, {"size": "3"}, {"size": "1"}, {"size": "1"}]}}}, "dtype": {"type": "DT_FLOAT"}}}, {"name": "model_57/tf.nn.convolution_799/convolution/filter", "op": "Const", "attr": {"value": {"tensor": {"dtype": "DT_FLOAT", "tensorShape": {"dim": [{"size": "3"}, {"size": "3"}, {"size": "1"}, {"size": "1"}]}}}, "dtype": {"type": "DT_FLOAT"}}}, {"name": "model_57/tf.nn.convolution_800/convolution/filter", "op": "Const", "attr": {"value": {"tensor": {"dtype": "DT_FLOAT", "tensorShape": {"dim": [{"size": "3"}, {"size": "3"}, {"size": "1"}, {"size": "1"}]}}}, "dtype": {"type": "DT_FLOAT"}}}, {"name": "model_57/tf.nn.convolution_801/convolution/filter", "op": "Const", "attr": {"value": {"tensor": {"dtype": "DT_FLOAT", "tensorShape": {"dim": [{"size": "3"}, {"size": "3"}, {"size": "1"}, {"size": "1"}]}}}, "dtype": {"type": "DT_FLOAT"}}}, {"name": "model_57/tf.nn.convolution_802/convolution/filter", "op": "Const", "attr": {"value": {"tensor": {"dtype": "DT_FLOAT", "tensorShape": {"dim": [{"size": "3"}, {"size": "3"}, {"size": "1"}, {"size": "1"}]}}}, "dtype": {"type": "DT_FLOAT"}}}, {"name": "model_57/tf.nn.convolution_803/convolution/filter", "op": "Const", "attr": {"value": {"tensor": {"dtype": "DT_FLOAT", "tensorShape": {"dim": [{"size": "3"}, {"size": "3"}, {"size": "1"}, {"size": "1"}]}}}, "dtype": {"type": "DT_FLOAT"}}}, {"name": "model_57/tf.nn.convolution_804/convolution/filter", "op": "Const", "attr": {"value": {"tensor": {"dtype": "DT_FLOAT", "tensorShape": {"dim": [{"size": "3"}, {"size": "3"}, {"size": "1"}, {"size": "1"}]}}}, "dtype": {"type": "DT_FLOAT"}}}, {"name": "model_57/tf.nn.convolution_805/convolution/filter", "op": "Const", "attr": {"value": {"tensor": {"dtype": "DT_FLOAT", "tensorShape": {"dim": [{"size": "3"}, {"size": "3"}, {"size": "1"}, {"size": "1"}]}}}, "dtype": {"type": "DT_FLOAT"}}}, {"name": "model_57/tf.nn.convolution_806/convolution/filter", "op": "Const", "attr": {"value": {"tensor": {"dtype": "DT_FLOAT", "tensorShape": {"dim": [{"size": "3"}, {"size": "3"}, {"size": "1"}, {"size": "1"}]}}}, "dtype": {"type": "DT_FLOAT"}}}, {"name": "model_57/tf.nn.convolution_807/convolution/filter", "op": "Const", "attr": {"value": {"tensor": {"dtype": "DT_FLOAT", "tensorShape": {"dim": [{"size": "3"}, {"size": "3"}, {"size": "1"}, {"size": "1"}]}}}, "dtype": {"type": "DT_FLOAT"}}}, {"name": "model_57/tf.nn.convolution_808/convolution/filter", "op": "Const", "attr": {"value": {"tensor": {"dtype": "DT_FLOAT", "tensorShape": {"dim": [{"size": "3"}, {"size": "3"}, {"size": "1"}, {"size": "1"}]}}}, "dtype": {"type": "DT_FLOAT"}}}, {"name": "model_57/tf.nn.convolution_809/convolution/filter", "op": "Const", "attr": {"value": {"tensor": {"dtype": "DT_FLOAT", "tensorShape": {"dim": [{"size": "3"}, {"size": "3"}, {"size": "1"}, {"size": "1"}]}}}, "dtype": {"type": "DT_FLOAT"}}}, {"name": "model_57/tf.nn.convolution_810/convolution/filter", "op": "Const", "attr": {"value": {"tensor": {"dtype": "DT_FLOAT", "tensorShape": {"dim": [{"size": "3"}, {"size": "3"}, {"size": "1"}, {"size": "1"}]}}}, "dtype": {"type": "DT_FLOAT"}}}, {"name": "model_57/tf.nn.convolution_811/convolution/filter", "op": "Const", "attr": {"value": {"tensor": {"dtype": "DT_FLOAT", "tensorShape": {"dim": [{"size": "3"}, {"size": "3"}, {"size": "1"}, {"size": "1"}]}}}, "dtype": {"type": "DT_FLOAT"}}}, {"name": "model_57/tf.nn.convolution_812/convolution/filter", "op": "Const", "attr": {"value": {"tensor": {"dtype": "DT_FLOAT", "tensorShape": {"dim": [{"size": "3"}, {"size": "3"}, {"size": "1"}, {"size": "1"}]}}}, "dtype": {"type": "DT_FLOAT"}}}, {"name": "model_57/tf.nn.convolution_813/convolution/filter", "op": "Const", "attr": {"value": {"tensor": {"dtype": "DT_FLOAT", "tensorShape": {"dim": [{"size": "3"}, {"size": "3"}, {"size": "1"}, {"size": "1"}]}}}, "dtype": {"type": "DT_FLOAT"}}}, {"name": "model_57/tf.nn.convolution_814/convolution/filter", "op": "Const", "attr": {"value": {"tensor": {"dtype": "DT_FLOAT", "tensorShape": {"dim": [{"size": "3"}, {"size": "3"}, {"size": "1"}, {"size": "1"}]}}}, "dtype": {"type": "DT_FLOAT"}}}, {"name": "model_57/tf.nn.convolution_815/convolution/filter", "op": "Const", "attr": {"value": {"tensor": {"dtype": "DT_FLOAT", "tensorShape": {"dim": [{"size": "3"}, {"size": "3"}, {"size": "1"}, {"size": "1"}]}}}, "dtype": {"type": "DT_FLOAT"}}}, {"name": "model_57/tf.nn.convolution_816/convolution/filter", "op": "Const", "attr": {"value": {"tensor": {"dtype": "DT_FLOAT", "tensorShape": {"dim": [{"size": "3"}, {"size": "3"}, {"size": "1"}, {"size": "1"}]}}}, "dtype": {"type": "DT_FLOAT"}}}, {"name": "model_57/tf.nn.convolution_817/convolution/filter", "op": "Const", "attr": {"value": {"tensor": {"dtype": "DT_FLOAT", "tensorShape": {"dim": [{"size": "3"}, {"size": "3"}, {"size": "1"}, {"size": "1"}]}}}, "dtype": {"type": "DT_FLOAT"}}}, {"name": "model_57/tf.nn.convolution_818/convolution/filter", "op": "Const", "attr": {"value": {"tensor": {"dtype": "DT_FLOAT", "tensorShape": {"dim": [{"size": "3"}, {"size": "3"}, {"size": "1"}, {"size": "1"}]}}}, "dtype": {"type": "DT_FLOAT"}}}, {"name": "model_57/tf.nn.convolution_819/convolution/filter", "op": "Const", "attr": {"value": {"tensor": {"dtype": "DT_FLOAT", "tensorShape": {"dim": [{"size": "3"}, {"size": "3"}, {"size": "1"}, {"size": "1"}]}}}, "dtype": {"type": "DT_FLOAT"}}}, {"name": "model_57/tf.nn.convolution_820/convolution/filter", "op": "Const", "attr": {"value": {"tensor": {"dtype": "DT_FLOAT", "tensorShape": {"dim": [{"size": "3"}, {"size": "3"}, {"size": "1"}, {"size": "1"}]}}}, "dtype": {"type": "DT_FLOAT"}}}, {"name": "model_57/tf.nn.convolution_821/convolution/filter", "op": "Const", "attr": {"value": {"tensor": {"dtype": "DT_FLOAT", "tensorShape": {"dim": [{"size": "3"}, {"size": "3"}, {"size": "1"}, {"size": "1"}]}}}, "dtype": {"type": "DT_FLOAT"}}}, {"name": "model_57/tf.nn.convolution_822/convolution/filter", "op": "Const", "attr": {"value": {"tensor": {"dtype": "DT_FLOAT", "tensorShape": {"dim": [{"size": "3"}, {"size": "3"}, {"size": "1"}, {"size": "1"}]}}}, "dtype": {"type": "DT_FLOAT"}}}, {"name": "model_57/tf.nn.convolution_823/convolution/filter", "op": "Const", "attr": {"value": {"tensor": {"dtype": "DT_FLOAT", "tensorShape": {"dim": [{"size": "3"}, {"size": "3"}, {"size": "1"}, {"size": "1"}]}}}, "dtype": {"type": "DT_FLOAT"}}}, {"name": "model_57/tf.nn.convolution_824/convolution/filter", "op": "Const", "attr": {"value": {"tensor": {"dtype": "DT_FLOAT", "tensorShape": {"dim": [{"size": "3"}, {"size": "3"}, {"size": "1"}, {"size": "1"}]}}}, "dtype": {"type": "DT_FLOAT"}}}, {"name": "model_57/tf.nn.convolution_825/convolution/filter", "op": "Const", "attr": {"value": {"tensor": {"dtype": "DT_FLOAT", "tensorShape": {"dim": [{"size": "3"}, {"size": "3"}, {"size": "1"}, {"size": "1"}]}}}, "dtype": {"type": "DT_FLOAT"}}}, {"name": "model_57/tf.nn.convolution_826/convolution/filter", "op": "Const", "attr": {"value": {"tensor": {"dtype": "DT_FLOAT", "tensorShape": {"dim": [{"size": "3"}, {"size": "3"}, {"size": "1"}, {"size": "1"}]}}}, "dtype": {"type": "DT_FLOAT"}}}, {"name": "model_57/tf.nn.convolution_827/convolution/filter", "op": "Const", "attr": {"value": {"tensor": {"dtype": "DT_FLOAT", "tensorShape": {"dim": [{"size": "3"}, {"size": "3"}, {"size": "1"}, {"size": "1"}]}}}, "dtype": {"type": "DT_FLOAT"}}}, {"name": "model_57/tf.nn.convolution_828/convolution/filter", "op": "Const", "attr": {"value": {"tensor": {"dtype": "DT_FLOAT", "tensorShape": {"dim": [{"size": "3"}, {"size": "3"}, {"size": "1"}, {"size": "1"}]}}}, "dtype": {"type": "DT_FLOAT"}}}, {"name": "model_57/tf.nn.convolution_829/convolution/filter", "op": "Const", "attr": {"value": {"tensor": {"dtype": "DT_FLOAT", "tensorShape": {"dim": [{"size": "3"}, {"size": "3"}, {"size": "1"}, {"size": "1"}]}}}, "dtype": {"type": "DT_FLOAT"}}}, {"name": "model_57/tf.nn.convolution_830/convolution/filter", "op": "Const", "attr": {"value": {"tensor": {"dtype": "DT_FLOAT", "tensorShape": {"dim": [{"size": "3"}, {"size": "3"}, {"size": "1"}, {"size": "1"}]}}}, "dtype": {"type": "DT_FLOAT"}}}, {"name": "model_57/tf.nn.convolution_831/convolution/filter", "op": "Const", "attr": {"value": {"tensor": {"dtype": "DT_FLOAT", "tensorShape": {"dim": [{"size": "3"}, {"size": "3"}, {"size": "1"}, {"size": "1"}]}}}, "dtype": {"type": "DT_FLOAT"}}}, {"name": "model_57/tf.nn.convolution_832/convolution/filter", "op": "Const", "attr": {"value": {"tensor": {"dtype": "DT_FLOAT", "tensorShape": {"dim": [{"size": "3"}, {"size": "3"}, {"size": "1"}, {"size": "1"}]}}}, "dtype": {"type": "DT_FLOAT"}}}, {"name": "model_57/tf.nn.convolution_833/convolution/filter", "op": "Const", "attr": {"value": {"tensor": {"dtype": "DT_FLOAT", "tensorShape": {"dim": [{"size": "3"}, {"size": "3"}, {"size": "1"}, {"size": "1"}]}}}, "dtype": {"type": "DT_FLOAT"}}}, {"name": "model_57/tf.nn.convolution_834/convolution/filter", "op": "Const", "attr": {"value": {"tensor": {"dtype": "DT_FLOAT", "tensorShape": {"dim": [{"size": "3"}, {"size": "3"}, {"size": "1"}, {"size": "1"}]}}}, "dtype": {"type": "DT_FLOAT"}}}, {"name": "model_57/tf.nn.convolution_835/convolution/filter", "op": "Const", "attr": {"value": {"tensor": {"dtype": "DT_FLOAT", "tensorShape": {"dim": [{"size": "3"}, {"size": "3"}, {"size": "1"}, {"size": "1"}]}}}, "dtype": {"type": "DT_FLOAT"}}}, {"name": "model_57/tf.nn.convolution_836/convolution/filter", "op": "Const", "attr": {"value": {"tensor": {"dtype": "DT_FLOAT", "tensorShape": {"dim": [{"size": "3"}, {"size": "3"}, {"size": "1"}, {"size": "1"}]}}}, "dtype": {"type": "DT_FLOAT"}}}, {"name": "model_57/tf.nn.convolution_837/convolution/filter", "op": "Const", "attr": {"value": {"tensor": {"dtype": "DT_FLOAT", "tensorShape": {"dim": [{"size": "3"}, {"size": "3"}, {"size": "1"}, {"size": "1"}]}}}, "dtype": {"type": "DT_FLOAT"}}}, {"name": "model_57/tf.nn.convolution_838/convolution/filter", "op": "Const", "attr": {"value": {"tensor": {"dtype": "DT_FLOAT", "tensorShape": {"dim": [{"size": "3"}, {"size": "3"}, {"size": "1"}, {"size": "1"}]}}}, "dtype": {"type": "DT_FLOAT"}}}, {"name": "model_57/tf.nn.convolution_839/convolution/filter", "op": "Const", "attr": {"value": {"tensor": {"dtype": "DT_FLOAT", "tensorShape": {"dim": [{"size": "3"}, {"size": "3"}, {"size": "1"}, {"size": "1"}]}}}, "dtype": {"type": "DT_FLOAT"}}}, {"name": "model_57/tf.nn.convolution_840/convolution/filter", "op": "Const", "attr": {"value": {"tensor": {"dtype": "DT_FLOAT", "tensorShape": {"dim": [{"size": "3"}, {"size": "3"}, {"size": "1"}, {"size": "1"}]}}}, "dtype": {"type": "DT_FLOAT"}}}, {"name": "model_57/tf.nn.convolution_841/convolution/filter", "op": "Const", "attr": {"value": {"tensor": {"dtype": "DT_FLOAT", "tensorShape": {"dim": [{"size": "3"}, {"size": "3"}, {"size": "1"}, {"size": "1"}]}}}, "dtype": {"type": "DT_FLOAT"}}}, {"name": "model_57/tf.nn.convolution_842/convolution/filter", "op": "Const", "attr": {"value": {"tensor": {"dtype": "DT_FLOAT", "tensorShape": {"dim": [{"size": "3"}, {"size": "3"}, {"size": "1"}, {"size": "1"}]}}}, "dtype": {"type": "DT_FLOAT"}}}, {"name": "model_57/tf.nn.convolution_843/convolution/filter", "op": "Const", "attr": {"value": {"tensor": {"dtype": "DT_FLOAT", "tensorShape": {"dim": [{"size": "3"}, {"size": "3"}, {"size": "1"}, {"size": "1"}]}}}, "dtype": {"type": "DT_FLOAT"}}}, {"name": "model_57/tf.nn.convolution_844/convolution/filter", "op": "Const", "attr": {"value": {"tensor": {"dtype": "DT_FLOAT", "tensorShape": {"dim": [{"size": "3"}, {"size": "3"}, {"size": "1"}, {"size": "1"}]}}}, "dtype": {"type": "DT_FLOAT"}}}, {"name": "model_57/tf.nn.convolution_845/convolution/filter", "op": "Const", "attr": {"value": {"tensor": {"dtype": "DT_FLOAT", "tensorShape": {"dim": [{"size": "3"}, {"size": "3"}, {"size": "1"}, {"size": "1"}]}}}, "dtype": {"type": "DT_FLOAT"}}}, {"name": "model_57/tf.nn.convolution_846/convolution/filter", "op": "Const", "attr": {"value": {"tensor": {"dtype": "DT_FLOAT", "tensorShape": {"dim": [{"size": "3"}, {"size": "3"}, {"size": "1"}, {"size": "1"}]}}}, "dtype": {"type": "DT_FLOAT"}}}, {"name": "model_57/tf.nn.convolution_847/convolution/filter", "op": "Const", "attr": {"value": {"tensor": {"dtype": "DT_FLOAT", "tensorShape": {"dim": [{"size": "3"}, {"size": "3"}, {"size": "1"}, {"size": "1"}]}}}, "dtype": {"type": "DT_FLOAT"}}}, {"name": "model_57/tf.nn.convolution_848/convolution/filter", "op": "Const", "attr": {"value": {"tensor": {"dtype": "DT_FLOAT", "tensorShape": {"dim": [{"size": "3"}, {"size": "3"}, {"size": "1"}, {"size": "1"}]}}}, "dtype": {"type": "DT_FLOAT"}}}, {"name": "model_57/tf.nn.convolution_849/convolution/filter", "op": "Const", "attr": {"value": {"tensor": {"dtype": "DT_FLOAT", "tensorShape": {"dim": [{"size": "3"}, {"size": "3"}, {"size": "1"}, {"size": "1"}]}}}, "dtype": {"type": "DT_FLOAT"}}}, {"name": "model_57/tf.nn.convolution_850/convolution/filter", "op": "Const", "attr": {"value": {"tensor": {"dtype": "DT_FLOAT", "tensorShape": {"dim": [{"size": "3"}, {"size": "3"}, {"size": "1"}, {"size": "1"}]}}}, "dtype": {"type": "DT_FLOAT"}}}, {"name": "model_57/tf.nn.convolution_851/convolution/filter", "op": "Const", "attr": {"value": {"tensor": {"dtype": "DT_FLOAT", "tensorShape": {"dim": [{"size": "3"}, {"size": "3"}, {"size": "1"}, {"size": "1"}]}}}, "dtype": {"type": "DT_FLOAT"}}}, {"name": "model_57/tf.nn.convolution_852/convolution/filter", "op": "Const", "attr": {"value": {"tensor": {"dtype": "DT_FLOAT", "tensorShape": {"dim": [{"size": "3"}, {"size": "3"}, {"size": "1"}, {"size": "1"}]}}}, "dtype": {"type": "DT_FLOAT"}}}, {"name": "model_57/tf.nn.convolution_853/convolution/filter", "op": "Const", "attr": {"value": {"tensor": {"dtype": "DT_FLOAT", "tensorShape": {"dim": [{"size": "3"}, {"size": "3"}, {"size": "1"}, {"size": "1"}]}}}, "dtype": {"type": "DT_FLOAT"}}}, {"name": "model_57/tf.nn.convolution_854/convolution/filter", "op": "Const", "attr": {"value": {"tensor": {"dtype": "DT_FLOAT", "tensorShape": {"dim": [{"size": "3"}, {"size": "3"}, {"size": "1"}, {"size": "1"}]}}}, "dtype": {"type": "DT_FLOAT"}}}, {"name": "model_57/tf.nn.convolution_855/convolution/filter", "op": "Const", "attr": {"value": {"tensor": {"dtype": "DT_FLOAT", "tensorShape": {"dim": [{"size": "3"}, {"size": "3"}, {"size": "1"}, {"size": "1"}]}}}, "dtype": {"type": "DT_FLOAT"}}}, {"name": "model_57/tf.nn.convolution_856/convolution/filter", "op": "Const", "attr": {"value": {"tensor": {"dtype": "DT_FLOAT", "tensorShape": {"dim": [{"size": "3"}, {"size": "3"}, {"size": "1"}, {"size": "1"}]}}}, "dtype": {"type": "DT_FLOAT"}}}, {"name": "model_57/tf.nn.convolution_857/convolution/filter", "op": "Const", "attr": {"value": {"tensor": {"dtype": "DT_FLOAT", "tensorShape": {"dim": [{"size": "3"}, {"size": "3"}, {"size": "1"}, {"size": "1"}]}}}, "dtype": {"type": "DT_FLOAT"}}}, {"name": "model_57/tf.nn.convolution_858/convolution/filter", "op": "Const", "attr": {"value": {"tensor": {"dtype": "DT_FLOAT", "tensorShape": {"dim": [{"size": "3"}, {"size": "3"}, {"size": "1"}, {"size": "1"}]}}}, "dtype": {"type": "DT_FLOAT"}}}, {"name": "model_57/tf.nn.convolution_859/convolution/filter", "op": "Const", "attr": {"value": {"tensor": {"dtype": "DT_FLOAT", "tensorShape": {"dim": [{"size": "3"}, {"size": "3"}, {"size": "1"}, {"size": "1"}]}}}, "dtype": {"type": "DT_FLOAT"}}}, {"name": "model_57/tf.nn.convolution_860/convolution/filter", "op": "Const", "attr": {"value": {"tensor": {"dtype": "DT_FLOAT", "tensorShape": {"dim": [{"size": "3"}, {"size": "3"}, {"size": "1"}, {"size": "1"}]}}}, "dtype": {"type": "DT_FLOAT"}}}, {"name": "model_57/tf.nn.convolution_861/convolution/filter", "op": "Const", "attr": {"value": {"tensor": {"dtype": "DT_FLOAT", "tensorShape": {"dim": [{"size": "3"}, {"size": "3"}, {"size": "1"}, {"size": "1"}]}}}, "dtype": {"type": "DT_FLOAT"}}}, {"name": "model_57/tf.nn.convolution_862/convolution/filter", "op": "Const", "attr": {"value": {"tensor": {"dtype": "DT_FLOAT", "tensorShape": {"dim": [{"size": "3"}, {"size": "3"}, {"size": "1"}, {"size": "1"}]}}}, "dtype": {"type": "DT_FLOAT"}}}, {"name": "model_57/tf.nn.convolution_863/convolution/filter", "op": "Const", "attr": {"value": {"tensor": {"dtype": "DT_FLOAT", "tensorShape": {"dim": [{"size": "3"}, {"size": "3"}, {"size": "1"}, {"size": "1"}]}}}, "dtype": {"type": "DT_FLOAT"}}}, {"name": "model_57/tf.nn.convolution_864/convolution/filter", "op": "Const", "attr": {"value": {"tensor": {"dtype": "DT_FLOAT", "tensorShape": {"dim": [{"size": "3"}, {"size": "3"}, {"size": "1"}, {"size": "1"}]}}}, "dtype": {"type": "DT_FLOAT"}}}, {"name": "model_57/tf.nn.convolution_865/convolution/filter", "op": "Const", "attr": {"value": {"tensor": {"dtype": "DT_FLOAT", "tensorShape": {"dim": [{"size": "3"}, {"size": "3"}, {"size": "1"}, {"size": "1"}]}}}, "dtype": {"type": "DT_FLOAT"}}}, {"name": "model_57/tf.nn.convolution_866/convolution/filter", "op": "Const", "attr": {"value": {"tensor": {"dtype": "DT_FLOAT", "tensorShape": {"dim": [{"size": "3"}, {"size": "3"}, {"size": "1"}, {"size": "1"}]}}}, "dtype": {"type": "DT_FLOAT"}}}, {"name": "model_57/tf.nn.convolution_867/convolution/filter", "op": "Const", "attr": {"value": {"tensor": {"dtype": "DT_FLOAT", "tensorShape": {"dim": [{"size": "3"}, {"size": "3"}, {"size": "1"}, {"size": "1"}]}}}, "dtype": {"type": "DT_FLOAT"}}}, {"name": "model_57/tf.nn.convolution_868/convolution/filter", "op": "Const", "attr": {"value": {"tensor": {"dtype": "DT_FLOAT", "tensorShape": {"dim": [{"size": "3"}, {"size": "3"}, {"size": "1"}, {"size": "1"}]}}}, "dtype": {"type": "DT_FLOAT"}}}, {"name": "model_57/tf.nn.convolution_869/convolution/filter", "op": "Const", "attr": {"value": {"tensor": {"dtype": "DT_FLOAT", "tensorShape": {"dim": [{"size": "3"}, {"size": "3"}, {"size": "1"}, {"size": "1"}]}}}, "dtype": {"type": "DT_FLOAT"}}}, {"name": "model_57/tf.nn.convolution_870/convolution/filter", "op": "Const", "attr": {"value": {"tensor": {"dtype": "DT_FLOAT", "tensorShape": {"dim": [{"size": "3"}, {"size": "3"}, {"size": "1"}, {"size": "1"}]}}}, "dtype": {"type": "DT_FLOAT"}}}, {"name": "model_57/tf.nn.convolution_871/convolution/filter", "op": "Const", "attr": {"value": {"tensor": {"dtype": "DT_FLOAT", "tensorShape": {"dim": [{"size": "3"}, {"size": "3"}, {"size": "1"}, {"size": "1"}]}}}, "dtype": {"type": "DT_FLOAT"}}}, {"name": "model_57/tf.nn.convolution_872/convolution/filter", "op": "Const", "attr": {"value": {"tensor": {"dtype": "DT_FLOAT", "tensorShape": {"dim": [{"size": "3"}, {"size": "3"}, {"size": "1"}, {"size": "1"}]}}}, "dtype": {"type": "DT_FLOAT"}}}, {"name": "model_57/tf.nn.convolution_873/convolution/filter", "op": "Const", "attr": {"value": {"tensor": {"dtype": "DT_FLOAT", "tensorShape": {"dim": [{"size": "3"}, {"size": "3"}, {"size": "1"}, {"size": "1"}]}}}, "dtype": {"type": "DT_FLOAT"}}}, {"name": "model_57/tf.nn.convolution_874/convolution/filter", "op": "Const", "attr": {"value": {"tensor": {"dtype": "DT_FLOAT", "tensorShape": {"dim": [{"size": "3"}, {"size": "3"}, {"size": "1"}, {"size": "1"}]}}}, "dtype": {"type": "DT_FLOAT"}}}, {"name": "model_57/tf.nn.convolution_875/convolution/filter", "op": "Const", "attr": {"value": {"tensor": {"dtype": "DT_FLOAT", "tensorShape": {"dim": [{"size": "3"}, {"size": "3"}, {"size": "1"}, {"size": "1"}]}}}, "dtype": {"type": "DT_FLOAT"}}}, {"name": "model_57/tf.nn.convolution_876/convolution/filter", "op": "Const", "attr": {"value": {"tensor": {"dtype": "DT_FLOAT", "tensorShape": {"dim": [{"size": "3"}, {"size": "3"}, {"size": "1"}, {"size": "1"}]}}}, "dtype": {"type": "DT_FLOAT"}}}, {"name": "model_57/tf.nn.convolution_877/convolution/filter", "op": "Const", "attr": {"value": {"tensor": {"dtype": "DT_FLOAT", "tensorShape": {"dim": [{"size": "3"}, {"size": "3"}, {"size": "1"}, {"size": "1"}]}}}, "dtype": {"type": "DT_FLOAT"}}}, {"name": "model_57/tf.nn.convolution_878/convolution/filter", "op": "Const", "attr": {"value": {"tensor": {"dtype": "DT_FLOAT", "tensorShape": {"dim": [{"size": "3"}, {"size": "3"}, {"size": "1"}, {"size": "1"}]}}}, "dtype": {"type": "DT_FLOAT"}}}, {"name": "model_57/tf.nn.convolution_879/convolution/filter", "op": "Const", "attr": {"value": {"tensor": {"dtype": "DT_FLOAT", "tensorShape": {"dim": [{"size": "3"}, {"size": "3"}, {"size": "1"}, {"size": "1"}]}}}, "dtype": {"type": "DT_FLOAT"}}}, {"name": "model_57/tf.nn.convolution_880/convolution/filter", "op": "Const", "attr": {"value": {"tensor": {"dtype": "DT_FLOAT", "tensorShape": {"dim": [{"size": "3"}, {"size": "3"}, {"size": "1"}, {"size": "1"}]}}}, "dtype": {"type": "DT_FLOAT"}}}, {"name": "model_57/tf.nn.convolution_881/convolution/filter", "op": "Const", "attr": {"value": {"tensor": {"dtype": "DT_FLOAT", "tensorShape": {"dim": [{"size": "3"}, {"size": "3"}, {"size": "1"}, {"size": "1"}]}}}, "dtype": {"type": "DT_FLOAT"}}}, {"name": "model_57/tf.nn.convolution_882/convolution/filter", "op": "Const", "attr": {"value": {"tensor": {"dtype": "DT_FLOAT", "tensorShape": {"dim": [{"size": "3"}, {"size": "3"}, {"size": "1"}, {"size": "1"}]}}}, "dtype": {"type": "DT_FLOAT"}}}, {"name": "model_57/tf.nn.convolution_883/convolution/filter", "op": "Const", "attr": {"value": {"tensor": {"dtype": "DT_FLOAT", "tensorShape": {"dim": [{"size": "3"}, {"size": "3"}, {"size": "1"}, {"size": "1"}]}}}, "dtype": {"type": "DT_FLOAT"}}}, {"name": "model_57/tf.nn.convolution_884/convolution/filter", "op": "Const", "attr": {"value": {"tensor": {"dtype": "DT_FLOAT", "tensorShape": {"dim": [{"size": "3"}, {"size": "3"}, {"size": "1"}, {"size": "1"}]}}}, "dtype": {"type": "DT_FLOAT"}}}, {"name": "model_57/tf.nn.convolution_885/convolution/filter", "op": "Const", "attr": {"value": {"tensor": {"dtype": "DT_FLOAT", "tensorShape": {"dim": [{"size": "3"}, {"size": "3"}, {"size": "1"}, {"size": "1"}]}}}, "dtype": {"type": "DT_FLOAT"}}}, {"name": "model_57/tf.nn.convolution_886/convolution/filter", "op": "Const", "attr": {"value": {"tensor": {"dtype": "DT_FLOAT", "tensorShape": {"dim": [{"size": "3"}, {"size": "3"}, {"size": "1"}, {"size": "1"}]}}}, "dtype": {"type": "DT_FLOAT"}}}, {"name": "model_57/tf.nn.convolution_887/convolution/filter", "op": "Const", "attr": {"value": {"tensor": {"dtype": "DT_FLOAT", "tensorShape": {"dim": [{"size": "3"}, {"size": "3"}, {"size": "1"}, {"size": "1"}]}}}, "dtype": {"type": "DT_FLOAT"}}}, {"name": "model_57/tf.nn.convolution_888/convolution/filter", "op": "Const", "attr": {"value": {"tensor": {"dtype": "DT_FLOAT", "tensorShape": {"dim": [{"size": "3"}, {"size": "3"}, {"size": "1"}, {"size": "1"}]}}}, "dtype": {"type": "DT_FLOAT"}}}, {"name": "model_57/tf.nn.convolution_889/convolution/filter", "op": "Const", "attr": {"value": {"tensor": {"dtype": "DT_FLOAT", "tensorShape": {"dim": [{"size": "3"}, {"size": "3"}, {"size": "1"}, {"size": "1"}]}}}, "dtype": {"type": "DT_FLOAT"}}}, {"name": "model_57/tf.nn.convolution_890/convolution/filter", "op": "Const", "attr": {"value": {"tensor": {"dtype": "DT_FLOAT", "tensorShape": {"dim": [{"size": "3"}, {"size": "3"}, {"size": "1"}, {"size": "1"}]}}}, "dtype": {"type": "DT_FLOAT"}}}, {"name": "model_57/tf.nn.convolution_891/convolution/filter", "op": "Const", "attr": {"value": {"tensor": {"dtype": "DT_FLOAT", "tensorShape": {"dim": [{"size": "3"}, {"size": "3"}, {"size": "1"}, {"size": "1"}]}}}, "dtype": {"type": "DT_FLOAT"}}}, {"name": "model_57/tf.nn.convolution_892/convolution/filter", "op": "Const", "attr": {"value": {"tensor": {"dtype": "DT_FLOAT", "tensorShape": {"dim": [{"size": "3"}, {"size": "3"}, {"size": "1"}, {"size": "1"}]}}}, "dtype": {"type": "DT_FLOAT"}}}, {"name": "model_57/tf.nn.convolution_893/convolution/filter", "op": "Const", "attr": {"value": {"tensor": {"dtype": "DT_FLOAT", "tensorShape": {"dim": [{"size": "3"}, {"size": "3"}, {"size": "1"}, {"size": "1"}]}}}, "dtype": {"type": "DT_FLOAT"}}}, {"name": "model_57/tf.nn.convolution_894/convolution/filter", "op": "Const", "attr": {"value": {"tensor": {"dtype": "DT_FLOAT", "tensorShape": {"dim": [{"size": "3"}, {"size": "3"}, {"size": "1"}, {"size": "1"}]}}}, "dtype": {"type": "DT_FLOAT"}}}, {"name": "model_57/tf.nn.convolution_895/convolution/filter", "op": "Const", "attr": {"value": {"tensor": {"dtype": "DT_FLOAT", "tensorShape": {"dim": [{"size": "3"}, {"size": "3"}, {"size": "1"}, {"size": "1"}]}}}, "dtype": {"type": "DT_FLOAT"}}}, {"name": "model_57/tf.nn.convolution_896/convolution/filter", "op": "Const", "attr": {"value": {"tensor": {"dtype": "DT_FLOAT", "tensorShape": {"dim": [{"size": "3"}, {"size": "3"}, {"size": "1"}, {"size": "1"}]}}}, "dtype": {"type": "DT_FLOAT"}}}, {"name": "model_57/tf.nn.convolution_897/convolution/filter", "op": "Const", "attr": {"value": {"tensor": {"dtype": "DT_FLOAT", "tensorShape": {"dim": [{"size": "3"}, {"size": "3"}, {"size": "1"}, {"size": "1"}]}}}, "dtype": {"type": "DT_FLOAT"}}}, {"name": "model_57/tf.nn.convolution_898/convolution/filter", "op": "Const", "attr": {"value": {"tensor": {"dtype": "DT_FLOAT", "tensorShape": {"dim": [{"size": "3"}, {"size": "3"}, {"size": "1"}, {"size": "1"}]}}}, "dtype": {"type": "DT_FLOAT"}}}, {"name": "model_57/tf.nn.convolution_899/convolution/filter", "op": "Const", "attr": {"value": {"tensor": {"dtype": "DT_FLOAT", "tensorShape": {"dim": [{"size": "3"}, {"size": "3"}, {"size": "1"}, {"size": "1"}]}}}, "dtype": {"type": "DT_FLOAT"}}}, {"name": "model_57/tf.nn.convolution_900/convolution/filter", "op": "Const", "attr": {"value": {"tensor": {"dtype": "DT_FLOAT", "tensorShape": {"dim": [{"size": "3"}, {"size": "3"}, {"size": "1"}, {"size": "1"}]}}}, "dtype": {"type": "DT_FLOAT"}}}, {"name": "model_57/tf.nn.convolution_901/convolution/filter", "op": "Const", "attr": {"value": {"tensor": {"dtype": "DT_FLOAT", "tensorShape": {"dim": [{"size": "3"}, {"size": "3"}, {"size": "1"}, {"size": "1"}]}}}, "dtype": {"type": "DT_FLOAT"}}}, {"name": "model_57/tf.nn.convolution_902/convolution/filter", "op": "Const", "attr": {"value": {"tensor": {"dtype": "DT_FLOAT", "tensorShape": {"dim": [{"size": "3"}, {"size": "3"}, {"size": "1"}, {"size": "1"}]}}}, "dtype": {"type": "DT_FLOAT"}}}, {"name": "model_57/tf.nn.convolution_903/convolution/filter", "op": "Const", "attr": {"value": {"tensor": {"dtype": "DT_FLOAT", "tensorShape": {"dim": [{"size": "3"}, {"size": "3"}, {"size": "1"}, {"size": "1"}]}}}, "dtype": {"type": "DT_FLOAT"}}}, {"name": "model_57/tf.nn.convolution_904/convolution/filter", "op": "Const", "attr": {"value": {"tensor": {"dtype": "DT_FLOAT", "tensorShape": {"dim": [{"size": "3"}, {"size": "3"}, {"size": "1"}, {"size": "1"}]}}}, "dtype": {"type": "DT_FLOAT"}}}, {"name": "model_57/tf.nn.convolution_905/convolution/filter", "op": "Const", "attr": {"value": {"tensor": {"dtype": "DT_FLOAT", "tensorShape": {"dim": [{"size": "3"}, {"size": "3"}, {"size": "1"}, {"size": "1"}]}}}, "dtype": {"type": "DT_FLOAT"}}}, {"name": "model_57/tf.nn.convolution_906/convolution/filter", "op": "Const", "attr": {"value": {"tensor": {"dtype": "DT_FLOAT", "tensorShape": {"dim": [{"size": "3"}, {"size": "3"}, {"size": "1"}, {"size": "1"}]}}}, "dtype": {"type": "DT_FLOAT"}}}, {"name": "model_57/tf.nn.convolution_907/convolution/filter", "op": "Const", "attr": {"value": {"tensor": {"dtype": "DT_FLOAT", "tensorShape": {"dim": [{"size": "3"}, {"size": "3"}, {"size": "1"}, {"size": "1"}]}}}, "dtype": {"type": "DT_FLOAT"}}}, {"name": "model_57/tf.nn.convolution_908/convolution/filter", "op": "Const", "attr": {"value": {"tensor": {"dtype": "DT_FLOAT", "tensorShape": {"dim": [{"size": "3"}, {"size": "3"}, {"size": "1"}, {"size": "1"}]}}}, "dtype": {"type": "DT_FLOAT"}}}, {"name": "model_57/tf.nn.convolution_909/convolution/filter", "op": "Const", "attr": {"value": {"tensor": {"dtype": "DT_FLOAT", "tensorShape": {"dim": [{"size": "3"}, {"size": "3"}, {"size": "1"}, {"size": "1"}]}}}, "dtype": {"type": "DT_FLOAT"}}}, {"name": "model_57/tf.nn.convolution_910/convolution/filter", "op": "Const", "attr": {"value": {"tensor": {"dtype": "DT_FLOAT", "tensorShape": {"dim": [{"size": "3"}, {"size": "3"}, {"size": "1"}, {"size": "1"}]}}}, "dtype": {"type": "DT_FLOAT"}}}, {"name": "model_57/tf.nn.convolution_911/convolution/filter", "op": "Const", "attr": {"value": {"tensor": {"dtype": "DT_FLOAT", "tensorShape": {"dim": [{"size": "3"}, {"size": "3"}, {"size": "1"}, {"size": "1"}]}}}, "dtype": {"type": "DT_FLOAT"}}}, {"name": "model_57/tf.nn.convolution_912/convolution/filter", "op": "Const", "attr": {"value": {"tensor": {"dtype": "DT_FLOAT", "tensorShape": {"dim": [{"size": "3"}, {"size": "3"}, {"size": "1"}, {"size": "1"}]}}}, "dtype": {"type": "DT_FLOAT"}}}, {"name": "model_57/tf.nn.convolution_913/convolution/filter", "op": "Const", "attr": {"value": {"tensor": {"dtype": "DT_FLOAT", "tensorShape": {"dim": [{"size": "3"}, {"size": "3"}, {"size": "1"}, {"size": "1"}]}}}, "dtype": {"type": "DT_FLOAT"}}}, {"name": "model_57/tf.nn.convolution_914/convolution/filter", "op": "Const", "attr": {"value": {"tensor": {"dtype": "DT_FLOAT", "tensorShape": {"dim": [{"size": "3"}, {"size": "3"}, {"size": "1"}, {"size": "1"}]}}}, "dtype": {"type": "DT_FLOAT"}}}, {"name": "model_57/tf.nn.convolution_915/convolution/filter", "op": "Const", "attr": {"value": {"tensor": {"dtype": "DT_FLOAT", "tensorShape": {"dim": [{"size": "3"}, {"size": "3"}, {"size": "1"}, {"size": "1"}]}}}, "dtype": {"type": "DT_FLOAT"}}}, {"name": "model_57/tf.nn.convolution_916/convolution/filter", "op": "Const", "attr": {"value": {"tensor": {"dtype": "DT_FLOAT", "tensorShape": {"dim": [{"size": "3"}, {"size": "3"}, {"size": "1"}, {"size": "1"}]}}}, "dtype": {"type": "DT_FLOAT"}}}, {"name": "model_57/tf.nn.convolution_917/convolution/filter", "op": "Const", "attr": {"value": {"tensor": {"dtype": "DT_FLOAT", "tensorShape": {"dim": [{"size": "3"}, {"size": "3"}, {"size": "1"}, {"size": "1"}]}}}, "dtype": {"type": "DT_FLOAT"}}}, {"name": "model_57/tf.nn.convolution_918/convolution/filter", "op": "Const", "attr": {"value": {"tensor": {"dtype": "DT_FLOAT", "tensorShape": {"dim": [{"size": "3"}, {"size": "3"}, {"size": "1"}, {"size": "1"}]}}}, "dtype": {"type": "DT_FLOAT"}}}, {"name": "model_57/tf.split_2/split/split_dim", "op": "Const", "attr": {"value": {"tensor": {"dtype": "DT_INT32", "tensorShape": {}}}, "dtype": {"type": "DT_INT32"}}}, {"name": "model_57/tf.strided_slice_44/ones_like/tensor", "op": "Const", "attr": {"value": {"tensor": {"dtype": "DT_INT64", "tensorShape": {"dim": [{"size": "4"}]}}}, "dtype": {"type": "DT_INT64"}}}, {"name": "model_57/tf.strided_slice_44/StridedSlice/end", "op": "Const", "attr": {"value": {"tensor": {"dtype": "DT_INT64", "tensorShape": {"dim": [{"size": "4"}]}}}, "dtype": {"type": "DT_INT64"}}}, {"name": "model_57/tf.strided_slice_44/ones_like", "op": "Const", "attr": {"value": {"tensor": {"dtype": "DT_INT64", "tensorShape": {"dim": [{"size": "4"}]}}}, "dtype": {"type": "DT_INT64"}}}, {"name": "model_57/tf.nn.convolution_654/convolution/filter", "op": "Const", "attr": {"value": {"tensor": {"dtype": "DT_FLOAT", "tensorShape": {"dim": [{"size": "1"}, {"size": "1"}, {"size": "256"}, {"size": "128"}]}}}, "dtype": {"type": "DT_FLOAT"}}}, {"name": "model_57/tf.math.add_205/Add/y", "op": "Const", "attr": {"value": {"tensor": {"dtype": "DT_FLOAT", "tensorShape": {"dim": [{"size": "128"}]}}}, "dtype": {"type": "DT_FLOAT"}}}, {"name": "model_57/tf.nn.convolution_656/convolution/filter", "op": "Const", "attr": {"value": {"tensor": {"dtype": "DT_FLOAT", "tensorShape": {"dim": [{"size": "3"}, {"size": "3"}, {"size": "128"}, {"size": "128"}]}}}, "dtype": {"type": "DT_FLOAT"}}}, {"name": "model_57/tf.math.add_207/Add/y", "op": "Const", "attr": {"value": {"tensor": {"dtype": "DT_FLOAT", "tensorShape": {"dim": [{"size": "128"}]}}}, "dtype": {"type": "DT_FLOAT"}}}, {"name": "model_57/tf.nn.convolution_657/convolution/filter", "op": "Const", "attr": {"value": {"tensor": {"dtype": "DT_FLOAT", "tensorShape": {"dim": [{"size": "3"}, {"size": "3"}, {"size": "128"}, {"size": "128"}]}}}, "dtype": {"type": "DT_FLOAT"}}}, {"name": "model_57/tf.math.add_208/Add/y", "op": "Const", "attr": {"value": {"tensor": {"dtype": "DT_FLOAT", "tensorShape": {"dim": [{"size": "128"}]}}}, "dtype": {"type": "DT_FLOAT"}}}, {"name": "model_57/tf.nn.convolution_658/convolution/filter", "op": "Const", "attr": {"value": {"tensor": {"dtype": "DT_FLOAT", "tensorShape": {"dim": [{"size": "3"}, {"size": "3"}, {"size": "128"}, {"size": "128"}]}}}, "dtype": {"type": "DT_FLOAT"}}}, {"name": "model_57/tf.math.add_211/Add/y", "op": "Const", "attr": {"value": {"tensor": {"dtype": "DT_FLOAT", "tensorShape": {"dim": [{"size": "128"}]}}}, "dtype": {"type": "DT_FLOAT"}}}, {"name": "model_57/tf.nn.convolution_659/convolution/filter", "op": "Const", "attr": {"value": {"tensor": {"dtype": "DT_FLOAT", "tensorShape": {"dim": [{"size": "3"}, {"size": "3"}, {"size": "128"}, {"size": "128"}]}}}, "dtype": {"type": "DT_FLOAT"}}}, {"name": "model_57/tf.math.add_212/Add/y", "op": "Const", "attr": {"value": {"tensor": {"dtype": "DT_FLOAT", "tensorShape": {"dim": [{"size": "128"}]}}}, "dtype": {"type": "DT_FLOAT"}}}, {"name": "model_57/tf.strided_slice_42/ones_like/tensor", "op": "Const", "attr": {"value": {"tensor": {"dtype": "DT_INT64", "tensorShape": {"dim": [{"size": "4"}]}}}, "dtype": {"type": "DT_INT64"}}}, {"name": "model_57/tf.strided_slice_42/StridedSlice/end", "op": "Const", "attr": {"value": {"tensor": {"dtype": "DT_INT64", "tensorShape": {"dim": [{"size": "4"}]}}}, "dtype": {"type": "DT_INT64"}}}, {"name": "model_57/tf.strided_slice_42/ones_like", "op": "Const", "attr": {"value": {"tensor": {"dtype": "DT_INT64", "tensorShape": {"dim": [{"size": "4"}]}}}, "dtype": {"type": "DT_INT64"}}}, {"name": "model_57/tf.nn.convolution_644/convolution/filter", "op": "Const", "attr": {"value": {"tensor": {"dtype": "DT_FLOAT", "tensorShape": {"dim": [{"size": "1"}, {"size": "1"}, {"size": "128"}, {"size": "64"}]}}}, "dtype": {"type": "DT_FLOAT"}}}, {"name": "model_57/tf.math.add_191/Add/y", "op": "Const", "attr": {"value": {"tensor": {"dtype": "DT_FLOAT", "tensorShape": {"dim": [{"size": "64"}]}}}, "dtype": {"type": "DT_FLOAT"}}}, {"name": "model_57/tf.nn.convolution_646/convolution/filter", "op": "Const", "attr": {"value": {"tensor": {"dtype": "DT_FLOAT", "tensorShape": {"dim": [{"size": "3"}, {"size": "3"}, {"size": "64"}, {"size": "64"}]}}}, "dtype": {"type": "DT_FLOAT"}}}, {"name": "model_57/tf.math.add_193/Add/y", "op": "Const", "attr": {"value": {"tensor": {"dtype": "DT_FLOAT", "tensorShape": {"dim": [{"size": "64"}]}}}, "dtype": {"type": "DT_FLOAT"}}}, {"name": "model_57/tf.nn.convolution_647/convolution/filter", "op": "Const", "attr": {"value": {"tensor": {"dtype": "DT_FLOAT", "tensorShape": {"dim": [{"size": "3"}, {"size": "3"}, {"size": "64"}, {"size": "64"}]}}}, "dtype": {"type": "DT_FLOAT"}}}, {"name": "model_57/tf.math.add_194/Add/y", "op": "Const", "attr": {"value": {"tensor": {"dtype": "DT_FLOAT", "tensorShape": {"dim": [{"size": "64"}]}}}, "dtype": {"type": "DT_FLOAT"}}}, {"name": "model_57/tf.nn.convolution_648/convolution/filter", "op": "Const", "attr": {"value": {"tensor": {"dtype": "DT_FLOAT", "tensorShape": {"dim": [{"size": "3"}, {"size": "3"}, {"size": "64"}, {"size": "64"}]}}}, "dtype": {"type": "DT_FLOAT"}}}, {"name": "model_57/tf.math.add_197/Add/y", "op": "Const", "attr": {"value": {"tensor": {"dtype": "DT_FLOAT", "tensorShape": {"dim": [{"size": "64"}]}}}, "dtype": {"type": "DT_FLOAT"}}}, {"name": "model_57/tf.nn.convolution_649/convolution/filter", "op": "Const", "attr": {"value": {"tensor": {"dtype": "DT_FLOAT", "tensorShape": {"dim": [{"size": "3"}, {"size": "3"}, {"size": "64"}, {"size": "64"}]}}}, "dtype": {"type": "DT_FLOAT"}}}, {"name": "model_57/tf.math.add_198/Add/y", "op": "Const", "attr": {"value": {"tensor": {"dtype": "DT_FLOAT", "tensorShape": {"dim": [{"size": "64"}]}}}, "dtype": {"type": "DT_FLOAT"}}}, {"name": "model_57/tf.strided_slice_40/ones_like/tensor", "op": "Const", "attr": {"value": {"tensor": {"dtype": "DT_INT64", "tensorShape": {"dim": [{"size": "4"}]}}}, "dtype": {"type": "DT_INT64"}}}, {"name": "model_57/tf.strided_slice_40/StridedSlice/end", "op": "Const", "attr": {"value": {"tensor": {"dtype": "DT_INT64", "tensorShape": {"dim": [{"size": "4"}]}}}, "dtype": {"type": "DT_INT64"}}}, {"name": "model_57/tf.strided_slice_40/ones_like", "op": "Const", "attr": {"value": {"tensor": {"dtype": "DT_INT64", "tensorShape": {"dim": [{"size": "4"}]}}}, "dtype": {"type": "DT_INT64"}}}, {"name": "model_57/tf.strided_slice_38/ones_like/tensor", "op": "Const", "attr": {"value": {"tensor": {"dtype": "DT_INT64", "tensorShape": {"dim": [{"size": "4"}]}}}, "dtype": {"type": "DT_INT64"}}}, {"name": "model_57/tf.strided_slice_38/StridedSlice/end", "op": "Const", "attr": {"value": {"tensor": {"dtype": "DT_INT64", "tensorShape": {"dim": [{"size": "4"}]}}}, "dtype": {"type": "DT_INT64"}}}, {"name": "model_57/tf.strided_slice_38/ones_like", "op": "Const", "attr": {"value": {"tensor": {"dtype": "DT_INT64", "tensorShape": {"dim": [{"size": "4"}]}}}, "dtype": {"type": "DT_INT64"}}}, {"name": "model_57/tf.compat.v1.pad_12/Pad/paddings", "op": "Const", "attr": {"value": {"tensor": {"dtype": "DT_INT32", "tensorShape": {"dim": [{"size": "4"}, {"size": "2"}]}}}, "dtype": {"type": "DT_INT32"}}}, {"name": "model_57/tf.nn.convolution_631/convolution/filter", "op": "Const", "attr": {"value": {"tensor": {"dtype": "DT_FLOAT", "tensorShape": {"dim": [{"size": "3"}, {"size": "3"}, {"size": "3"}, {"size": "32"}]}}}, "dtype": {"type": "DT_FLOAT"}}}, {"name": "model_57/tf.math.add_174/Add/y", "op": "Const", "attr": {"value": {"tensor": {"dtype": "DT_FLOAT", "tensorShape": {"dim": [{"size": "32"}]}}}, "dtype": {"type": "DT_FLOAT"}}}, {"name": "model_57/tf.compat.v1.pad_13/Pad/paddings", "op": "Const", "attr": {"value": {"tensor": {"dtype": "DT_INT32", "tensorShape": {"dim": [{"size": "4"}, {"size": "2"}]}}}, "dtype": {"type": "DT_INT32"}}}, {"name": "model_57/tf.nn.convolution_632/convolution/filter", "op": "Const", "attr": {"value": {"tensor": {"dtype": "DT_FLOAT", "tensorShape": {"dim": [{"size": "3"}, {"size": "3"}, {"size": "32"}, {"size": "64"}]}}}, "dtype": {"type": "DT_FLOAT"}}}, {"name": "model_57/tf.math.add_175/Add/y", "op": "Const", "attr": {"value": {"tensor": {"dtype": "DT_FLOAT", "tensorShape": {"dim": [{"size": "64"}]}}}, "dtype": {"type": "DT_FLOAT"}}}, {"name": "model_57/tf.nn.convolution_633/convolution/filter", "op": "Const", "attr": {"value": {"tensor": {"dtype": "DT_FLOAT", "tensorShape": {"dim": [{"size": "1"}, {"size": "1"}, {"size": "64"}, {"size": "64"}]}}}, "dtype": {"type": "DT_FLOAT"}}}, {"name": "model_57/tf.math.add_176/Add/y", "op": "Const", "attr": {"value": {"tensor": {"dtype": "DT_FLOAT", "tensorShape": {"dim": [{"size": "64"}]}}}, "dtype": {"type": "DT_FLOAT"}}}, {"name": "model_57/tf.strided_slice_39/ones_like/tensor", "op": "Const", "attr": {"value": {"tensor": {"dtype": "DT_INT64", "tensorShape": {"dim": [{"size": "4"}]}}}, "dtype": {"type": "DT_INT64"}}}, {"name": "model_57/tf.strided_slice_39/StridedSlice/end", "op": "Const", "attr": {"value": {"tensor": {"dtype": "DT_INT64", "tensorShape": {"dim": [{"size": "4"}]}}}, "dtype": {"type": "DT_INT64"}}}, {"name": "model_57/tf.strided_slice_39/ones_like", "op": "Const", "attr": {"value": {"tensor": {"dtype": "DT_INT64", "tensorShape": {"dim": [{"size": "4"}]}}}, "dtype": {"type": "DT_INT64"}}}, {"name": "model_57/tf.nn.convolution_634/convolution/filter", "op": "Const", "attr": {"value": {"tensor": {"dtype": "DT_FLOAT", "tensorShape": {"dim": [{"size": "3"}, {"size": "3"}, {"size": "32"}, {"size": "16"}]}}}, "dtype": {"type": "DT_FLOAT"}}}, {"name": "model_57/tf.math.add_177/Add/y", "op": "Const", "attr": {"value": {"tensor": {"dtype": "DT_FLOAT", "tensorShape": {"dim": [{"size": "16"}]}}}, "dtype": {"type": "DT_FLOAT"}}}, {"name": "model_57/tf.nn.convolution_635/convolution/filter", "op": "Const", "attr": {"value": {"tensor": {"dtype": "DT_FLOAT", "tensorShape": {"dim": [{"size": "3"}, {"size": "3"}, {"size": "16"}, {"size": "32"}]}}}, "dtype": {"type": "DT_FLOAT"}}}, {"name": "model_57/tf.math.add_178/Add/y", "op": "Const", "attr": {"value": {"tensor": {"dtype": "DT_FLOAT", "tensorShape": {"dim": [{"size": "32"}]}}}, "dtype": {"type": "DT_FLOAT"}}}, {"name": "model_57/tf.concat_38/concat/axis", "op": "Const", "attr": {"value": {"tensor": {"dtype": "DT_INT32", "tensorShape": {}}}, "dtype": {"type": "DT_INT32"}}}, {"name": "model_57/tf.nn.convolution_636/convolution/filter", "op": "Const", "attr": {"value": {"tensor": {"dtype": "DT_FLOAT", "tensorShape": {"dim": [{"size": "1"}, {"size": "1"}, {"size": "96"}, {"size": "128"}]}}}, "dtype": {"type": "DT_FLOAT"}}}, {"name": "model_57/tf.math.add_181/Add/y", "op": "Const", "attr": {"value": {"tensor": {"dtype": "DT_FLOAT", "tensorShape": {"dim": [{"size": "128"}]}}}, "dtype": {"type": "DT_FLOAT"}}}, {"name": "model_57/tf.compat.v1.pad_14/Pad/paddings", "op": "Const", "attr": {"value": {"tensor": {"dtype": "DT_INT32", "tensorShape": {"dim": [{"size": "4"}, {"size": "2"}]}}}, "dtype": {"type": "DT_INT32"}}}, {"name": "model_57/tf.nn.convolution_637/convolution/filter", "op": "Const", "attr": {"value": {"tensor": {"dtype": "DT_FLOAT", "tensorShape": {"dim": [{"size": "3"}, {"size": "3"}, {"size": "128"}, {"size": "128"}]}}}, "dtype": {"type": "DT_FLOAT"}}}, {"name": "model_57/tf.math.add_182/Add/y", "op": "Const", "attr": {"value": {"tensor": {"dtype": "DT_FLOAT", "tensorShape": {"dim": [{"size": "128"}]}}}, "dtype": {"type": "DT_FLOAT"}}}, {"name": "model_57/tf.nn.convolution_638/convolution/filter", "op": "Const", "attr": {"value": {"tensor": {"dtype": "DT_FLOAT", "tensorShape": {"dim": [{"size": "1"}, {"size": "1"}, {"size": "128"}, {"size": "128"}]}}}, "dtype": {"type": "DT_FLOAT"}}}, {"name": "model_57/tf.math.add_183/Add/y", "op": "Const", "attr": {"value": {"tensor": {"dtype": "DT_FLOAT", "tensorShape": {"dim": [{"size": "128"}]}}}, "dtype": {"type": "DT_FLOAT"}}}, {"name": "model_57/tf.strided_slice_41/ones_like/tensor", "op": "Const", "attr": {"value": {"tensor": {"dtype": "DT_INT64", "tensorShape": {"dim": [{"size": "4"}]}}}, "dtype": {"type": "DT_INT64"}}}, {"name": "model_57/tf.strided_slice_41/StridedSlice/end", "op": "Const", "attr": {"value": {"tensor": {"dtype": "DT_INT64", "tensorShape": {"dim": [{"size": "4"}]}}}, "dtype": {"type": "DT_INT64"}}}, {"name": "model_57/tf.strided_slice_41/ones_like", "op": "Const", "attr": {"value": {"tensor": {"dtype": "DT_INT64", "tensorShape": {"dim": [{"size": "4"}]}}}, "dtype": {"type": "DT_INT64"}}}, {"name": "model_57/tf.nn.convolution_639/convolution/filter", "op": "Const", "attr": {"value": {"tensor": {"dtype": "DT_FLOAT", "tensorShape": {"dim": [{"size": "3"}, {"size": "3"}, {"size": "64"}, {"size": "32"}]}}}, "dtype": {"type": "DT_FLOAT"}}}, {"name": "model_57/tf.math.add_184/Add/y", "op": "Const", "attr": {"value": {"tensor": {"dtype": "DT_FLOAT", "tensorShape": {"dim": [{"size": "32"}]}}}, "dtype": {"type": "DT_FLOAT"}}}, {"name": "model_57/tf.nn.convolution_640/convolution/filter", "op": "Const", "attr": {"value": {"tensor": {"dtype": "DT_FLOAT", "tensorShape": {"dim": [{"size": "3"}, {"size": "3"}, {"size": "32"}, {"size": "64"}]}}}, "dtype": {"type": "DT_FLOAT"}}}, {"name": "model_57/tf.math.add_185/Add/y", "op": "Const", "attr": {"value": {"tensor": {"dtype": "DT_FLOAT", "tensorShape": {"dim": [{"size": "64"}]}}}, "dtype": {"type": "DT_FLOAT"}}}, {"name": "model_57/tf.concat_39/concat/axis", "op": "Const", "attr": {"value": {"tensor": {"dtype": "DT_INT32", "tensorShape": {}}}, "dtype": {"type": "DT_INT32"}}}, {"name": "model_57/tf.nn.convolution_641/convolution/filter", "op": "Const", "attr": {"value": {"tensor": {"dtype": "DT_FLOAT", "tensorShape": {"dim": [{"size": "1"}, {"size": "1"}, {"size": "192"}, {"size": "256"}]}}}, "dtype": {"type": "DT_FLOAT"}}}, {"name": "model_57/tf.math.add_188/Add/y", "op": "Const", "attr": {"value": {"tensor": {"dtype": "DT_FLOAT", "tensorShape": {"dim": [{"size": "256"}]}}}, "dtype": {"type": "DT_FLOAT"}}}, {"name": "model_57/tf.compat.v1.pad_15/Pad/paddings", "op": "Const", "attr": {"value": {"tensor": {"dtype": "DT_INT32", "tensorShape": {"dim": [{"size": "4"}, {"size": "2"}]}}}, "dtype": {"type": "DT_INT32"}}}, {"name": "model_57/tf.nn.convolution_642/convolution/filter", "op": "Const", "attr": {"value": {"tensor": {"dtype": "DT_FLOAT", "tensorShape": {"dim": [{"size": "3"}, {"size": "3"}, {"size": "256"}, {"size": "256"}]}}}, "dtype": {"type": "DT_FLOAT"}}}, {"name": "model_57/tf.math.add_189/Add/y", "op": "Const", "attr": {"value": {"tensor": {"dtype": "DT_FLOAT", "tensorShape": {"dim": [{"size": "256"}]}}}, "dtype": {"type": "DT_FLOAT"}}}, {"name": "model_57/tf.nn.convolution_643/convolution/filter", "op": "Const", "attr": {"value": {"tensor": {"dtype": "DT_FLOAT", "tensorShape": {"dim": [{"size": "1"}, {"size": "1"}, {"size": "256"}, {"size": "256"}]}}}, "dtype": {"type": "DT_FLOAT"}}}, {"name": "model_57/tf.math.add_190/Add/y", "op": "Const", "attr": {"value": {"tensor": {"dtype": "DT_FLOAT", "tensorShape": {"dim": [{"size": "256"}]}}}, "dtype": {"type": "DT_FLOAT"}}}, {"name": "model_57/tf.strided_slice_43/ones_like/tensor", "op": "Const", "attr": {"value": {"tensor": {"dtype": "DT_INT64", "tensorShape": {"dim": [{"size": "4"}]}}}, "dtype": {"type": "DT_INT64"}}}, {"name": "model_57/tf.strided_slice_43/StridedSlice/end", "op": "Const", "attr": {"value": {"tensor": {"dtype": "DT_INT64", "tensorShape": {"dim": [{"size": "4"}]}}}, "dtype": {"type": "DT_INT64"}}}, {"name": "model_57/tf.strided_slice_43/ones_like", "op": "Const", "attr": {"value": {"tensor": {"dtype": "DT_INT64", "tensorShape": {"dim": [{"size": "4"}]}}}, "dtype": {"type": "DT_INT64"}}}, {"name": "model_57/tf.nn.convolution_645/convolution/filter", "op": "Const", "attr": {"value": {"tensor": {"dtype": "DT_FLOAT", "tensorShape": {"dim": [{"size": "1"}, {"size": "1"}, {"size": "128"}, {"size": "64"}]}}}, "dtype": {"type": "DT_FLOAT"}}}, {"name": "model_57/tf.math.add_192/Add/y", "op": "Const", "attr": {"value": {"tensor": {"dtype": "DT_FLOAT", "tensorShape": {"dim": [{"size": "64"}]}}}, "dtype": {"type": "DT_FLOAT"}}}, {"name": "model_57/tf.concat_40/concat/axis", "op": "Const", "attr": {"value": {"tensor": {"dtype": "DT_INT32", "tensorShape": {}}}, "dtype": {"type": "DT_INT32"}}}, {"name": "model_57/tf.nn.convolution_650/convolution/filter", "op": "Const", "attr": {"value": {"tensor": {"dtype": "DT_FLOAT", "tensorShape": {"dim": [{"size": "1"}, {"size": "1"}, {"size": "128"}, {"size": "128"}]}}}, "dtype": {"type": "DT_FLOAT"}}}, {"name": "model_57/tf.math.add_201/Add/y", "op": "Const", "attr": {"value": {"tensor": {"dtype": "DT_FLOAT", "tensorShape": {"dim": [{"size": "128"}]}}}, "dtype": {"type": "DT_FLOAT"}}}, {"name": "model_57/tf.concat_41/concat/axis", "op": "Const", "attr": {"value": {"tensor": {"dtype": "DT_INT32", "tensorShape": {}}}, "dtype": {"type": "DT_INT32"}}}, {"name": "model_57/tf.nn.convolution_651/convolution/filter", "op": "Const", "attr": {"value": {"tensor": {"dtype": "DT_FLOAT", "tensorShape": {"dim": [{"size": "1"}, {"size": "1"}, {"size": "384"}, {"size": "256"}]}}}, "dtype": {"type": "DT_FLOAT"}}}, {"name": "model_57/tf.math.add_202/Add/y", "op": "Const", "attr": {"value": {"tensor": {"dtype": "DT_FLOAT", "tensorShape": {"dim": [{"size": "256"}]}}}, "dtype": {"type": "DT_FLOAT"}}}, {"name": "model_57/tf.compat.v1.pad_16/Pad/paddings", "op": "Const", "attr": {"value": {"tensor": {"dtype": "DT_INT32", "tensorShape": {"dim": [{"size": "4"}, {"size": "2"}]}}}, "dtype": {"type": "DT_INT32"}}}, {"name": "model_57/tf.nn.convolution_652/convolution/filter", "op": "Const", "attr": {"value": {"tensor": {"dtype": "DT_FLOAT", "tensorShape": {"dim": [{"size": "3"}, {"size": "3"}, {"size": "256"}, {"size": "512"}]}}}, "dtype": {"type": "DT_FLOAT"}}}, {"name": "model_57/tf.math.add_203/Add/y", "op": "Const", "attr": {"value": {"tensor": {"dtype": "DT_FLOAT", "tensorShape": {"dim": [{"size": "512"}]}}}, "dtype": {"type": "DT_FLOAT"}}}, {"name": "model_57/tf.nn.convolution_653/convolution/filter", "op": "Const", "attr": {"value": {"tensor": {"dtype": "DT_FLOAT", "tensorShape": {"dim": [{"size": "1"}, {"size": "1"}, {"size": "512"}, {"size": "512"}]}}}, "dtype": {"type": "DT_FLOAT"}}}, {"name": "model_57/tf.math.add_204/Add/y", "op": "Const", "attr": {"value": {"tensor": {"dtype": "DT_FLOAT", "tensorShape": {"dim": [{"size": "512"}]}}}, "dtype": {"type": "DT_FLOAT"}}}, {"name": "model_57/tf.strided_slice_45/ones_like/tensor", "op": "Const", "attr": {"value": {"tensor": {"dtype": "DT_INT64", "tensorShape": {"dim": [{"size": "4"}]}}}, "dtype": {"type": "DT_INT64"}}}, {"name": "model_57/tf.strided_slice_45/StridedSlice/end", "op": "Const", "attr": {"value": {"tensor": {"dtype": "DT_INT64", "tensorShape": {"dim": [{"size": "4"}]}}}, "dtype": {"type": "DT_INT64"}}}, {"name": "model_57/tf.strided_slice_45/ones_like", "op": "Const", "attr": {"value": {"tensor": {"dtype": "DT_INT64", "tensorShape": {"dim": [{"size": "4"}]}}}, "dtype": {"type": "DT_INT64"}}}, {"name": "model_57/tf.nn.convolution_655/convolution/filter", "op": "Const", "attr": {"value": {"tensor": {"dtype": "DT_FLOAT", "tensorShape": {"dim": [{"size": "1"}, {"size": "1"}, {"size": "256"}, {"size": "128"}]}}}, "dtype": {"type": "DT_FLOAT"}}}, {"name": "model_57/tf.math.add_206/Add/y", "op": "Const", "attr": {"value": {"tensor": {"dtype": "DT_FLOAT", "tensorShape": {"dim": [{"size": "128"}]}}}, "dtype": {"type": "DT_FLOAT"}}}, {"name": "model_57/tf.concat_42/concat/axis", "op": "Const", "attr": {"value": {"tensor": {"dtype": "DT_INT32", "tensorShape": {}}}, "dtype": {"type": "DT_INT32"}}}, {"name": "model_57/tf.nn.convolution_660/convolution/filter", "op": "Const", "attr": {"value": {"tensor": {"dtype": "DT_FLOAT", "tensorShape": {"dim": [{"size": "1"}, {"size": "1"}, {"size": "256"}, {"size": "256"}]}}}, "dtype": {"type": "DT_FLOAT"}}}, {"name": "model_57/tf.math.add_215/Add/y", "op": "Const", "attr": {"value": {"tensor": {"dtype": "DT_FLOAT", "tensorShape": {"dim": [{"size": "256"}]}}}, "dtype": {"type": "DT_FLOAT"}}}, {"name": "model_57/tf.concat_43/concat/axis", "op": "Const", "attr": {"value": {"tensor": {"dtype": "DT_INT32", "tensorShape": {}}}, "dtype": {"type": "DT_INT32"}}}, {"name": "model_57/tf.nn.convolution_661/convolution/filter", "op": "Const", "attr": {"value": {"tensor": {"dtype": "DT_FLOAT", "tensorShape": {"dim": [{"size": "1"}, {"size": "1"}, {"size": "768"}, {"size": "512"}]}}}, "dtype": {"type": "DT_FLOAT"}}}, {"name": "model_57/tf.math.add_216/Add/y", "op": "Const", "attr": {"value": {"tensor": {"dtype": "DT_FLOAT", "tensorShape": {"dim": [{"size": "512"}]}}}, "dtype": {"type": "DT_FLOAT"}}}, {"name": "model_57/tf.nn.convolution_662/convolution/filter", "op": "Const", "attr": {"value": {"tensor": {"dtype": "DT_FLOAT", "tensorShape": {"dim": [{"size": "1"}, {"size": "1"}, {"size": "512"}, {"size": "512"}]}}}, "dtype": {"type": "DT_FLOAT"}}}, {"name": "model_57/tf.math.add_217/Add/y", "op": "Const", "attr": {"value": {"tensor": {"dtype": "DT_FLOAT", "tensorShape": {"dim": [{"size": "512"}]}}}, "dtype": {"type": "DT_FLOAT"}}}, {"name": "model_57/tf.strided_slice_47/StridedSlice/begin", "op": "Const", "attr": {"value": {"tensor": {"dtype": "DT_INT32", "tensorShape": {"dim": [{"size": "4"}]}}}, "dtype": {"type": "DT_INT32"}}}, {"name": "model_57/tf.strided_slice_47/StridedSlice/end", "op": "Const", "attr": {"value": {"tensor": {"dtype": "DT_INT32", "tensorShape": {"dim": [{"size": "4"}]}}}, "dtype": {"type": "DT_INT32"}}}, {"name": "model_57/tf.strided_slice_47/ones_like", "op": "Const", "attr": {"value": {"tensor": {"dtype": "DT_INT32", "tensorShape": {"dim": [{"size": "4"}]}}}, "dtype": {"type": "DT_INT32"}}}, {"name": "model_57/tf.nn.convolution_663/convolution/filter", "op": "Const", "attr": {"value": {"tensor": {"dtype": "DT_FLOAT", "tensorShape": {"dim": [{"size": "1"}, {"size": "1"}, {"size": "256"}, {"size": "512"}]}}}, "dtype": {"type": "DT_FLOAT"}}}, {"name": "model_57/tf.math.add_218/Add/y", "op": "Const", "attr": {"value": {"tensor": {"dtype": "DT_FLOAT", "tensorShape": {"dim": [{"size": "512"}]}}}, "dtype": {"type": "DT_FLOAT"}}}, {"name": "model_57/tf.compat.v1.transpose_240/transpose/perm", "op": "Const", "attr": {"value": {"tensor": {"dtype": "DT_INT32", "tensorShape": {"dim": [{"size": "4"}]}}}, "dtype": {"type": "DT_INT32"}}}, {"name": "model_57/tf.reshape_36/Reshape/shape", "op": "Const", "attr": {"value": {"tensor": {"dtype": "DT_INT32", "tensorShape": {"dim": [{"size": "4"}]}}}, "dtype": {"type": "DT_INT32"}}}, {"name": "model_57/tf.strided_slice_50/StridedSlice/begin", "op": "Const", "attr": {"value": {"tensor": {"dtype": "DT_INT32", "tensorShape": {"dim": [{"size": "4"}]}}}, "dtype": {"type": "DT_INT32"}}}, {"name": "model_57/tf.strided_slice_50/StridedSlice/end", "op": "Const", "attr": {"value": {"tensor": {"dtype": "DT_INT32", "tensorShape": {"dim": [{"size": "4"}]}}}, "dtype": {"type": "DT_INT32"}}}, {"name": "model_57/tf.strided_slice_50/ones_like", "op": "Const", "attr": {"value": {"tensor": {"dtype": "DT_INT32", "tensorShape": {"dim": [{"size": "4"}]}}}, "dtype": {"type": "DT_INT32"}}}, {"name": "model_57/tf.reshape_39/Reshape/shape", "op": "Const", "attr": {"value": {"tensor": {"dtype": "DT_INT32", "tensorShape": {"dim": [{"size": "4"}]}}}, "dtype": {"type": "DT_INT32"}}}, {"name": "model_57/tf.compat.v1.transpose_248/transpose/perm", "op": "Const", "attr": {"value": {"tensor": {"dtype": "DT_INT32", "tensorShape": {"dim": [{"size": "4"}]}}}, "dtype": {"type": "DT_INT32"}}}, {"name": "model_57/tf.nn.convolution_919/convolution/filter", "op": "Const", "attr": {"value": {"tensor": {"dtype": "DT_FLOAT", "tensorShape": {"dim": [{"size": "3"}, {"size": "3"}, {"size": "1"}, {"size": "1"}]}}}, "dtype": {"type": "DT_FLOAT"}}}, {"name": "model_57/tf.concat_44/concat/axis", "op": "Const", "attr": {"value": {"tensor": {"dtype": "DT_INT32", "tensorShape": {}}}, "dtype": {"type": "DT_INT32"}}}, {"name": "model_57/tf.nn.convolution_920/convolution/filter", "op": "Const", "attr": {"value": {"tensor": {"dtype": "DT_FLOAT", "tensorShape": {"dim": [{"size": "1"}, {"size": "1"}, {"size": "256"}, {"size": "256"}]}}}, "dtype": {"type": "DT_FLOAT"}}}, {"name": "model_57/tf.math.add_222/Add/y", "op": "Const", "attr": {"value": {"tensor": {"dtype": "DT_FLOAT", "tensorShape": {"dim": [{"size": "256"}]}}}, "dtype": {"type": "DT_FLOAT"}}}, {"name": "model_57/tf.nn.convolution_921/convolution/filter", "op": "Const", "attr": {"value": {"tensor": {"dtype": "DT_FLOAT", "tensorShape": {"dim": [{"size": "1"}, {"size": "1"}, {"size": "256"}, {"size": "512"}]}}}, "dtype": {"type": "DT_FLOAT"}}}, {"name": "model_57/tf.math.add_225/Add/y", "op": "Const", "attr": {"value": {"tensor": {"dtype": "DT_FLOAT", "tensorShape": {"dim": [{"size": "512"}]}}}, "dtype": {"type": "DT_FLOAT"}}}, {"name": "model_57/tf.nn.convolution_922/convolution/filter", "op": "Const", "attr": {"value": {"tensor": {"dtype": "DT_FLOAT", "tensorShape": {"dim": [{"size": "1"}, {"size": "1"}, {"size": "512"}, {"size": "256"}]}}}, "dtype": {"type": "DT_FLOAT"}}}, {"name": "model_57/tf.concat_45/concat/axis", "op": "Const", "attr": {"value": {"tensor": {"dtype": "DT_INT32", "tensorShape": {}}}, "dtype": {"type": "DT_INT32"}}}, {"name": "model_57/tf.nn.convolution_923/convolution/filter", "op": "Const", "attr": {"value": {"tensor": {"dtype": "DT_FLOAT", "tensorShape": {"dim": [{"size": "1"}, {"size": "1"}, {"size": "512"}, {"size": "512"}]}}}, "dtype": {"type": "DT_FLOAT"}}}, {"name": "model_57/tf.math.add_229/Add/y", "op": "Const", "attr": {"value": {"tensor": {"dtype": "DT_FLOAT", "tensorShape": {"dim": [{"size": "512"}]}}}, "dtype": {"type": "DT_FLOAT"}}}, {"name": "model_57/tf.nn.convolution_924/convolution/filter", "op": "Const", "attr": {"value": {"tensor": {"dtype": "DT_FLOAT", "tensorShape": {"dim": [{"size": "1"}, {"size": "1"}, {"size": "512"}, {"size": "1280"}]}}}, "dtype": {"type": "DT_FLOAT"}}}, {"name": "model_57/tf.math.add_230/Add/y", "op": "Const", "attr": {"value": {"tensor": {"dtype": "DT_FLOAT", "tensorShape": {"dim": [{"size": "1280"}]}}}, "dtype": {"type": "DT_FLOAT"}}}, {"name": "model_57/tf.math.reduce_mean_1/Mean/reduction_indices", "op": "Const", "attr": {"value": {"tensor": {"dtype": "DT_INT32", "tensorShape": {"dim": [{"size": "2"}]}}}, "dtype": {"type": "DT_INT32"}}}, {"name": "model_57/tf.compat.v1.transpose_262/transpose/perm", "op": "Const", "attr": {"value": {"tensor": {"dtype": "DT_INT32", "tensorShape": {"dim": [{"size": "4"}]}}}, "dtype": {"type": "DT_INT32"}}}, {"name": "model_57/tf.reshape_43/Reshape/shape", "op": "Const", "attr": {"value": {"tensor": {"dtype": "DT_INT32", "tensorShape": {"dim": [{"size": "2"}]}}}, "dtype": {"type": "DT_INT32"}}}, {"name": "model_57/tf.linalg.matmul_13/MatMul/b", "op": "Const", "attr": {"value": {"tensor": {"dtype": "DT_FLOAT", "tensorShape": {"dim": [{"size": "1280"}, {"size": "9"}]}}}, "dtype": {"type": "DT_FLOAT"}}}, {"name": "model_57/tf.__operators__.add_1/AddV2/y", "op": "Const", "attr": {"value": {"tensor": {"dtype": "DT_FLOAT", "tensorShape": {"dim": [{"size": "9"}]}}}, "dtype": {"type": "DT_FLOAT"}}}, {"name": "x", "op": "Placeholder", "attr": {"shape": {"shape": {"dim": [{"size": "1"}, {"size": "640"}, {"size": "640"}, {"size": "3"}]}}, "dtype": {"type": "DT_FLOAT"}}}, {"name": "model_57/tf.compat.v1.pad_12/Pad", "op": "Pad", "input": ["x", "model_57/tf.compat.v1.pad_12/Pad/paddings"], "attr": {"Tpaddings": {"type": "DT_INT32"}, "T": {"type": "DT_FLOAT"}}}, {"name": "model_57/tf.math.add_174/Add", "op": "_FusedConv2D", "input": ["model_57/tf.compat.v1.pad_12/Pad", "model_57/tf.nn.convolution_631/convolution/filter", "model_57/tf.math.add_174/Add/y"], "device": "/device:CPU:0", "attr": {"num_host_args": {"i": "0"}, "data_format": {"s": "TkhXQw=="}, "filter_format": {"s": "SFdJTw=="}, "fused_ops": {"list": {"s": ["Qmlhc0FkZA=="]}}, "num_args": {"i": "1"}, "strides": {"list": {"i": ["1", "2", "2", "1"]}}, "TArgs": {"list": {"type": ["DT_FLOAT"]}}, "padding": {"s": "VkFMSUQ="}, "use_cudnn_on_gpu": {"b": true}, "leakyrelu_alpha": {"f": 0.2}, "epsilon": {"f": 0.0}, "T": {"type": "DT_FLOAT"}, "explicit_paddings": {"list": {}}, "dilations": {"list": {"i": ["1", "1", "1", "1"]}}}}, {"name": "model_57/tf.math.sigmoid_113/Sigmoid", "op": "Sigmoid", "input": ["model_57/tf.math.add_174/Add"], "attr": {"T": {"type": "DT_FLOAT"}}}, {"name": "model_57/tf.math.multiply_517/Mul", "op": "Mul", "input": ["model_57/tf.math.add_174/Add", "model_57/tf.math.sigmoid_113/Sigmoid"], "attr": {"T": {"type": "DT_FLOAT"}}}, {"name": "model_57/tf.compat.v1.pad_13/Pad", "op": "Pad", "input": ["model_57/tf.math.multiply_517/Mul", "model_57/tf.compat.v1.pad_13/Pad/paddings"], "attr": {"Tpaddings": {"type": "DT_INT32"}, "T": {"type": "DT_FLOAT"}}}, {"name": "model_57/tf.math.add_175/Add", "op": "_FusedConv2D", "input": ["model_57/tf.compat.v1.pad_13/Pad", "model_57/tf.nn.convolution_632/convolution/filter", "model_57/tf.math.add_175/Add/y"], "device": "/device:CPU:0", "attr": {"num_host_args": {"i": "0"}, "data_format": {"s": "TkhXQw=="}, "filter_format": {"s": "SFdJTw=="}, "fused_ops": {"list": {"s": ["Qmlhc0FkZA=="]}}, "num_args": {"i": "1"}, "strides": {"list": {"i": ["1", "2", "2", "1"]}}, "TArgs": {"list": {"type": ["DT_FLOAT"]}}, "padding": {"s": "VkFMSUQ="}, "use_cudnn_on_gpu": {"b": true}, "leakyrelu_alpha": {"f": 0.2}, "epsilon": {"f": 0.0}, "T": {"type": "DT_FLOAT"}, "explicit_paddings": {"list": {}}, "dilations": {"list": {"i": ["1", "1", "1", "1"]}}}}, {"name": "model_57/tf.math.sigmoid_114/Sigmoid", "op": "Sigmoid", "input": ["model_57/tf.math.add_175/Add"], "attr": {"T": {"type": "DT_FLOAT"}}}, {"name": "model_57/tf.math.multiply_521/Mul", "op": "Mul", "input": ["model_57/tf.math.add_175/Add", "model_57/tf.math.sigmoid_114/Sigmoid"], "attr": {"T": {"type": "DT_FLOAT"}}}, {"name": "model_57/tf.math.add_176/Add", "op": "_FusedConv2D", "input": ["model_57/tf.math.multiply_521/Mul", "model_57/tf.nn.convolution_633/convolution/filter", "model_57/tf.math.add_176/Add/y"], "device": "/device:CPU:0", "attr": {"num_host_args": {"i": "0"}, "data_format": {"s": "TkhXQw=="}, "filter_format": {"s": "SFdJTw=="}, "fused_ops": {"list": {"s": ["Qmlhc0FkZA=="]}}, "num_args": {"i": "1"}, "strides": {"list": {"i": ["1", "1", "1", "1"]}}, "TArgs": {"list": {"type": ["DT_FLOAT"]}}, "padding": {"s": "U0FNRQ=="}, "use_cudnn_on_gpu": {"b": true}, "leakyrelu_alpha": {"f": 0.2}, "epsilon": {"f": 0.0}, "T": {"type": "DT_FLOAT"}, "explicit_paddings": {"list": {}}, "dilations": {"list": {"i": ["1", "1", "1", "1"]}}}}, {"name": "model_57/tf.math.sigmoid_115/Sigmoid", "op": "Sigmoid", "input": ["model_57/tf.math.add_176/Add"], "attr": {"T": {"type": "DT_FLOAT"}}}, {"name": "model_57/tf.math.multiply_525/Mul", "op": "Mul", "input": ["model_57/tf.math.add_176/Add", "model_57/tf.math.sigmoid_115/Sigmoid"], "attr": {"T": {"type": "DT_FLOAT"}}}, {"name": "model_57/tf.strided_slice_38/StridedSlice", "op": "StridedSlice", "input": ["model_57/tf.math.multiply_525/Mul", "model_57/tf.strided_slice_38/ones_like/tensor", "model_57/tf.strided_slice_38/StridedSlice/end", "model_57/tf.strided_slice_38/ones_like"], "attr": {"shrink_axis_mask": {"i": "0"}, "Index": {"type": "DT_INT64"}, "new_axis_mask": {"i": "0"}, "begin_mask": {"i": "15"}, "T": {"type": "DT_FLOAT"}, "end_mask": {"i": "7"}, "ellipsis_mask": {"i": "0"}}}, {"name": "model_57/tf.strided_slice_39/StridedSlice", "op": "StridedSlice", "input": ["model_57/tf.math.multiply_525/Mul", "model_57/tf.strided_slice_39/ones_like/tensor", "model_57/tf.strided_slice_39/StridedSlice/end", "model_57/tf.strided_slice_39/ones_like"], "attr": {"shrink_axis_mask": {"i": "0"}, "Index": {"type": "DT_INT64"}, "new_axis_mask": {"i": "0"}, "begin_mask": {"i": "7"}, "end_mask": {"i": "7"}, "T": {"type": "DT_FLOAT"}, "ellipsis_mask": {"i": "0"}}}, {"name": "model_57/tf.math.add_177/Add", "op": "_FusedConv2D", "input": ["model_57/tf.strided_slice_39/StridedSlice", "model_57/tf.nn.convolution_634/convolution/filter", "model_57/tf.math.add_177/Add/y"], "device": "/device:CPU:0", "attr": {"num_host_args": {"i": "0"}, "data_format": {"s": "TkhXQw=="}, "filter_format": {"s": "SFdJTw=="}, "strides": {"list": {"i": ["1", "1", "1", "1"]}}, "num_args": {"i": "1"}, "fused_ops": {"list": {"s": ["Qmlhc0FkZA=="]}}, "TArgs": {"list": {"type": ["DT_FLOAT"]}}, "padding": {"s": "U0FNRQ=="}, "use_cudnn_on_gpu": {"b": true}, "leakyrelu_alpha": {"f": 0.2}, "epsilon": {"f": 0.0}, "T": {"type": "DT_FLOAT"}, "explicit_paddings": {"list": {}}, "dilations": {"list": {"i": ["1", "1", "1", "1"]}}}}, {"name": "model_57/tf.math.sigmoid_116/Sigmoid", "op": "Sigmoid", "input": ["model_57/tf.math.add_177/Add"], "attr": {"T": {"type": "DT_FLOAT"}}}, {"name": "model_57/tf.math.multiply_529/Mul", "op": "Mul", "input": ["model_57/tf.math.add_177/Add", "model_57/tf.math.sigmoid_116/Sigmoid"], "attr": {"T": {"type": "DT_FLOAT"}}}, {"name": "model_57/tf.math.add_178/Add", "op": "_FusedConv2D", "input": ["model_57/tf.math.multiply_529/Mul", "model_57/tf.nn.convolution_635/convolution/filter", "model_57/tf.math.add_178/Add/y"], "device": "/device:CPU:0", "attr": {"num_host_args": {"i": "0"}, "data_format": {"s": "TkhXQw=="}, "filter_format": {"s": "SFdJTw=="}, "strides": {"list": {"i": ["1", "1", "1", "1"]}}, "num_args": {"i": "1"}, "fused_ops": {"list": {"s": ["Qmlhc0FkZA=="]}}, "TArgs": {"list": {"type": ["DT_FLOAT"]}}, "padding": {"s": "U0FNRQ=="}, "use_cudnn_on_gpu": {"b": true}, "leakyrelu_alpha": {"f": 0.2}, "epsilon": {"f": 0.0}, "T": {"type": "DT_FLOAT"}, "explicit_paddings": {"list": {}}, "dilations": {"list": {"i": ["1", "1", "1", "1"]}}}}, {"name": "model_57/tf.math.sigmoid_117/Sigmoid", "op": "Sigmoid", "input": ["model_57/tf.math.add_178/Add"], "attr": {"T": {"type": "DT_FLOAT"}}}, {"name": "model_57/tf.math.multiply_533/Mul", "op": "Mul", "input": ["model_57/tf.math.add_178/Add", "model_57/tf.math.sigmoid_117/Sigmoid"], "attr": {"T": {"type": "DT_FLOAT"}}}, {"name": "model_57/tf.math.add_180/Add", "op": "AddV2", "input": ["model_57/tf.strided_slice_39/StridedSlice", "model_57/tf.math.multiply_533/Mul"], "attr": {"T": {"type": "DT_FLOAT"}}}, {"name": "model_57/tf.concat_38/concat", "op": "ConcatV2", "input": ["model_57/tf.strided_slice_38/StridedSlice", "model_57/tf.strided_slice_39/StridedSlice", "model_57/tf.math.add_180/Add", "model_57/tf.concat_38/concat/axis"], "attr": {"N": {"i": "3"}, "T": {"type": "DT_FLOAT"}, "Tidx": {"type": "DT_INT32"}}}, {"name": "model_57/tf.math.add_181/Add", "op": "_FusedConv2D", "input": ["model_57/tf.concat_38/concat", "model_57/tf.nn.convolution_636/convolution/filter", "model_57/tf.math.add_181/Add/y"], "device": "/device:CPU:0", "attr": {"num_host_args": {"i": "0"}, "data_format": {"s": "TkhXQw=="}, "filter_format": {"s": "SFdJTw=="}, "fused_ops": {"list": {"s": ["Qmlhc0FkZA=="]}}, "num_args": {"i": "1"}, "strides": {"list": {"i": ["1", "1", "1", "1"]}}, "TArgs": {"list": {"type": ["DT_FLOAT"]}}, "padding": {"s": "U0FNRQ=="}, "use_cudnn_on_gpu": {"b": true}, "leakyrelu_alpha": {"f": 0.2}, "epsilon": {"f": 0.0}, "T": {"type": "DT_FLOAT"}, "explicit_paddings": {"list": {}}, "dilations": {"list": {"i": ["1", "1", "1", "1"]}}}}, {"name": "model_57/tf.math.sigmoid_118/Sigmoid", "op": "Sigmoid", "input": ["model_57/tf.math.add_181/Add"], "attr": {"T": {"type": "DT_FLOAT"}}}, {"name": "model_57/tf.math.multiply_539/Mul", "op": "Mul", "input": ["model_57/tf.math.add_181/Add", "model_57/tf.math.sigmoid_118/Sigmoid"], "attr": {"T": {"type": "DT_FLOAT"}}}, {"name": "model_57/tf.compat.v1.pad_14/Pad", "op": "Pad", "input": ["model_57/tf.math.multiply_539/Mul", "model_57/tf.compat.v1.pad_14/Pad/paddings"], "attr": {"Tpaddings": {"type": "DT_INT32"}, "T": {"type": "DT_FLOAT"}}}, {"name": "model_57/tf.math.add_182/Add", "op": "_FusedConv2D", "input": ["model_57/tf.compat.v1.pad_14/Pad", "model_57/tf.nn.convolution_637/convolution/filter", "model_57/tf.math.add_182/Add/y"], "device": "/device:CPU:0", "attr": {"num_host_args": {"i": "0"}, "data_format": {"s": "TkhXQw=="}, "filter_format": {"s": "SFdJTw=="}, "strides": {"list": {"i": ["1", "2", "2", "1"]}}, "num_args": {"i": "1"}, "fused_ops": {"list": {"s": ["Qmlhc0FkZA=="]}}, "TArgs": {"list": {"type": ["DT_FLOAT"]}}, "padding": {"s": "VkFMSUQ="}, "use_cudnn_on_gpu": {"b": true}, "leakyrelu_alpha": {"f": 0.2}, "epsilon": {"f": 0.0}, "T": {"type": "DT_FLOAT"}, "explicit_paddings": {"list": {}}, "dilations": {"list": {"i": ["1", "1", "1", "1"]}}}}, {"name": "model_57/tf.math.sigmoid_119/Sigmoid", "op": "Sigmoid", "input": ["model_57/tf.math.add_182/Add"], "attr": {"T": {"type": "DT_FLOAT"}}}, {"name": "model_57/tf.math.multiply_543/Mul", "op": "Mul", "input": ["model_57/tf.math.add_182/Add", "model_57/tf.math.sigmoid_119/Sigmoid"], "attr": {"T": {"type": "DT_FLOAT"}}}, {"name": "model_57/tf.math.add_183/Add", "op": "_FusedConv2D", "input": ["model_57/tf.math.multiply_543/Mul", "model_57/tf.nn.convolution_638/convolution/filter", "model_57/tf.math.add_183/Add/y"], "device": "/device:CPU:0", "attr": {"num_host_args": {"i": "0"}, "data_format": {"s": "TkhXQw=="}, "filter_format": {"s": "SFdJTw=="}, "fused_ops": {"list": {"s": ["Qmlhc0FkZA=="]}}, "num_args": {"i": "1"}, "strides": {"list": {"i": ["1", "1", "1", "1"]}}, "TArgs": {"list": {"type": ["DT_FLOAT"]}}, "padding": {"s": "U0FNRQ=="}, "use_cudnn_on_gpu": {"b": true}, "leakyrelu_alpha": {"f": 0.2}, "epsilon": {"f": 0.0}, "T": {"type": "DT_FLOAT"}, "explicit_paddings": {"list": {}}, "dilations": {"list": {"i": ["1", "1", "1", "1"]}}}}, {"name": "model_57/tf.math.sigmoid_120/Sigmoid", "op": "Sigmoid", "input": ["model_57/tf.math.add_183/Add"], "attr": {"T": {"type": "DT_FLOAT"}}}, {"name": "model_57/tf.math.multiply_547/Mul", "op": "Mul", "input": ["model_57/tf.math.add_183/Add", "model_57/tf.math.sigmoid_120/Sigmoid"], "attr": {"T": {"type": "DT_FLOAT"}}}, {"name": "model_57/tf.strided_slice_40/StridedSlice", "op": "StridedSlice", "input": ["model_57/tf.math.multiply_547/Mul", "model_57/tf.strided_slice_40/ones_like/tensor", "model_57/tf.strided_slice_40/StridedSlice/end", "model_57/tf.strided_slice_40/ones_like"], "attr": {"shrink_axis_mask": {"i": "0"}, "Index": {"type": "DT_INT64"}, "new_axis_mask": {"i": "0"}, "begin_mask": {"i": "15"}, "end_mask": {"i": "7"}, "T": {"type": "DT_FLOAT"}, "ellipsis_mask": {"i": "0"}}}, {"name": "model_57/tf.strided_slice_41/StridedSlice", "op": "StridedSlice", "input": ["model_57/tf.math.multiply_547/Mul", "model_57/tf.strided_slice_41/ones_like/tensor", "model_57/tf.strided_slice_41/StridedSlice/end", "model_57/tf.strided_slice_41/ones_like"], "attr": {"shrink_axis_mask": {"i": "0"}, "Index": {"type": "DT_INT64"}, "new_axis_mask": {"i": "0"}, "begin_mask": {"i": "7"}, "T": {"type": "DT_FLOAT"}, "end_mask": {"i": "7"}, "ellipsis_mask": {"i": "0"}}}, {"name": "model_57/tf.math.add_184/Add", "op": "_FusedConv2D", "input": ["model_57/tf.strided_slice_41/StridedSlice", "model_57/tf.nn.convolution_639/convolution/filter", "model_57/tf.math.add_184/Add/y"], "device": "/device:CPU:0", "attr": {"num_host_args": {"i": "0"}, "data_format": {"s": "TkhXQw=="}, "filter_format": {"s": "SFdJTw=="}, "strides": {"list": {"i": ["1", "1", "1", "1"]}}, "num_args": {"i": "1"}, "fused_ops": {"list": {"s": ["Qmlhc0FkZA=="]}}, "TArgs": {"list": {"type": ["DT_FLOAT"]}}, "padding": {"s": "U0FNRQ=="}, "use_cudnn_on_gpu": {"b": true}, "leakyrelu_alpha": {"f": 0.2}, "epsilon": {"f": 0.0}, "T": {"type": "DT_FLOAT"}, "explicit_paddings": {"list": {}}, "dilations": {"list": {"i": ["1", "1", "1", "1"]}}}}, {"name": "model_57/tf.math.sigmoid_121/Sigmoid", "op": "Sigmoid", "input": ["model_57/tf.math.add_184/Add"], "attr": {"T": {"type": "DT_FLOAT"}}}, {"name": "model_57/tf.math.multiply_551/Mul", "op": "Mul", "input": ["model_57/tf.math.add_184/Add", "model_57/tf.math.sigmoid_121/Sigmoid"], "attr": {"T": {"type": "DT_FLOAT"}}}, {"name": "model_57/tf.math.add_185/Add", "op": "_FusedConv2D", "input": ["model_57/tf.math.multiply_551/Mul", "model_57/tf.nn.convolution_640/convolution/filter", "model_57/tf.math.add_185/Add/y"], "device": "/device:CPU:0", "attr": {"num_host_args": {"i": "0"}, "data_format": {"s": "TkhXQw=="}, "filter_format": {"s": "SFdJTw=="}, "strides": {"list": {"i": ["1", "1", "1", "1"]}}, "num_args": {"i": "1"}, "fused_ops": {"list": {"s": ["Qmlhc0FkZA=="]}}, "TArgs": {"list": {"type": ["DT_FLOAT"]}}, "padding": {"s": "U0FNRQ=="}, "use_cudnn_on_gpu": {"b": true}, "leakyrelu_alpha": {"f": 0.2}, "epsilon": {"f": 0.0}, "T": {"type": "DT_FLOAT"}, "explicit_paddings": {"list": {}}, "dilations": {"list": {"i": ["1", "1", "1", "1"]}}}}, {"name": "model_57/tf.math.sigmoid_122/Sigmoid", "op": "Sigmoid", "input": ["model_57/tf.math.add_185/Add"], "attr": {"T": {"type": "DT_FLOAT"}}}, {"name": "model_57/tf.math.multiply_555/Mul", "op": "Mul", "input": ["model_57/tf.math.add_185/Add", "model_57/tf.math.sigmoid_122/Sigmoid"], "attr": {"T": {"type": "DT_FLOAT"}}}, {"name": "model_57/tf.math.add_187/Add", "op": "AddV2", "input": ["model_57/tf.strided_slice_41/StridedSlice", "model_57/tf.math.multiply_555/Mul"], "attr": {"T": {"type": "DT_FLOAT"}}}, {"name": "model_57/tf.concat_39/concat", "op": "ConcatV2", "input": ["model_57/tf.strided_slice_40/StridedSlice", "model_57/tf.strided_slice_41/StridedSlice", "model_57/tf.math.add_187/Add", "model_57/tf.concat_39/concat/axis"], "attr": {"N": {"i": "3"}, "T": {"type": "DT_FLOAT"}, "Tidx": {"type": "DT_INT32"}}}, {"name": "model_57/tf.math.add_188/Add", "op": "_FusedConv2D", "input": ["model_57/tf.concat_39/concat", "model_57/tf.nn.convolution_641/convolution/filter", "model_57/tf.math.add_188/Add/y"], "device": "/device:CPU:0", "attr": {"num_host_args": {"i": "0"}, "data_format": {"s": "TkhXQw=="}, "filter_format": {"s": "SFdJTw=="}, "fused_ops": {"list": {"s": ["Qmlhc0FkZA=="]}}, "num_args": {"i": "1"}, "strides": {"list": {"i": ["1", "1", "1", "1"]}}, "TArgs": {"list": {"type": ["DT_FLOAT"]}}, "padding": {"s": "U0FNRQ=="}, "use_cudnn_on_gpu": {"b": true}, "leakyrelu_alpha": {"f": 0.2}, "epsilon": {"f": 0.0}, "T": {"type": "DT_FLOAT"}, "explicit_paddings": {"list": {}}, "dilations": {"list": {"i": ["1", "1", "1", "1"]}}}}, {"name": "model_57/tf.math.sigmoid_123/Sigmoid", "op": "Sigmoid", "input": ["model_57/tf.math.add_188/Add"], "attr": {"T": {"type": "DT_FLOAT"}}}, {"name": "model_57/tf.math.multiply_561/Mul", "op": "Mul", "input": ["model_57/tf.math.add_188/Add", "model_57/tf.math.sigmoid_123/Sigmoid"], "attr": {"T": {"type": "DT_FLOAT"}}}, {"name": "model_57/tf.compat.v1.pad_15/Pad", "op": "Pad", "input": ["model_57/tf.math.multiply_561/Mul", "model_57/tf.compat.v1.pad_15/Pad/paddings"], "attr": {"Tpaddings": {"type": "DT_INT32"}, "T": {"type": "DT_FLOAT"}}}, {"name": "model_57/tf.math.add_189/Add", "op": "_FusedConv2D", "input": ["model_57/tf.compat.v1.pad_15/Pad", "model_57/tf.nn.convolution_642/convolution/filter", "model_57/tf.math.add_189/Add/y"], "device": "/device:CPU:0", "attr": {"num_host_args": {"i": "0"}, "data_format": {"s": "TkhXQw=="}, "filter_format": {"s": "SFdJTw=="}, "fused_ops": {"list": {"s": ["Qmlhc0FkZA=="]}}, "num_args": {"i": "1"}, "strides": {"list": {"i": ["1", "2", "2", "1"]}}, "TArgs": {"list": {"type": ["DT_FLOAT"]}}, "padding": {"s": "VkFMSUQ="}, "use_cudnn_on_gpu": {"b": true}, "leakyrelu_alpha": {"f": 0.2}, "epsilon": {"f": 0.0}, "T": {"type": "DT_FLOAT"}, "explicit_paddings": {"list": {}}, "dilations": {"list": {"i": ["1", "1", "1", "1"]}}}}, {"name": "model_57/tf.math.sigmoid_124/Sigmoid", "op": "Sigmoid", "input": ["model_57/tf.math.add_189/Add"], "attr": {"T": {"type": "DT_FLOAT"}}}, {"name": "model_57/tf.math.multiply_565/Mul", "op": "Mul", "input": ["model_57/tf.math.add_189/Add", "model_57/tf.math.sigmoid_124/Sigmoid"], "attr": {"T": {"type": "DT_FLOAT"}}}, {"name": "model_57/tf.math.add_190/Add", "op": "_FusedConv2D", "input": ["model_57/tf.math.multiply_565/Mul", "model_57/tf.nn.convolution_643/convolution/filter", "model_57/tf.math.add_190/Add/y"], "device": "/device:CPU:0", "attr": {"num_host_args": {"i": "0"}, "data_format": {"s": "TkhXQw=="}, "filter_format": {"s": "SFdJTw=="}, "fused_ops": {"list": {"s": ["Qmlhc0FkZA=="]}}, "num_args": {"i": "1"}, "strides": {"list": {"i": ["1", "1", "1", "1"]}}, "TArgs": {"list": {"type": ["DT_FLOAT"]}}, "padding": {"s": "U0FNRQ=="}, "use_cudnn_on_gpu": {"b": true}, "leakyrelu_alpha": {"f": 0.2}, "epsilon": {"f": 0.0}, "T": {"type": "DT_FLOAT"}, "explicit_paddings": {"list": {}}, "dilations": {"list": {"i": ["1", "1", "1", "1"]}}}}, {"name": "model_57/tf.math.sigmoid_125/Sigmoid", "op": "Sigmoid", "input": ["model_57/tf.math.add_190/Add"], "attr": {"T": {"type": "DT_FLOAT"}}}, {"name": "model_57/tf.math.multiply_569/Mul", "op": "Mul", "input": ["model_57/tf.math.add_190/Add", "model_57/tf.math.sigmoid_125/Sigmoid"], "attr": {"T": {"type": "DT_FLOAT"}}}, {"name": "model_57/tf.strided_slice_42/StridedSlice", "op": "StridedSlice", "input": ["model_57/tf.math.multiply_569/Mul", "model_57/tf.strided_slice_42/ones_like/tensor", "model_57/tf.strided_slice_42/StridedSlice/end", "model_57/tf.strided_slice_42/ones_like"], "attr": {"shrink_axis_mask": {"i": "0"}, "Index": {"type": "DT_INT64"}, "new_axis_mask": {"i": "0"}, "begin_mask": {"i": "15"}, "end_mask": {"i": "7"}, "T": {"type": "DT_FLOAT"}, "ellipsis_mask": {"i": "0"}}}, {"name": "model_57/tf.strided_slice_43/StridedSlice", "op": "StridedSlice", "input": ["model_57/tf.math.multiply_569/Mul", "model_57/tf.strided_slice_43/ones_like/tensor", "model_57/tf.strided_slice_43/StridedSlice/end", "model_57/tf.strided_slice_43/ones_like"], "attr": {"shrink_axis_mask": {"i": "0"}, "Index": {"type": "DT_INT64"}, "new_axis_mask": {"i": "0"}, "begin_mask": {"i": "7"}, "end_mask": {"i": "7"}, "T": {"type": "DT_FLOAT"}, "ellipsis_mask": {"i": "0"}}}, {"name": "model_57/tf.math.add_191/Add", "op": "_FusedConv2D", "input": ["model_57/tf.strided_slice_43/StridedSlice", "model_57/tf.nn.convolution_644/convolution/filter", "model_57/tf.math.add_191/Add/y"], "device": "/device:CPU:0", "attr": {"num_host_args": {"i": "0"}, "data_format": {"s": "TkhXQw=="}, "filter_format": {"s": "SFdJTw=="}, "strides": {"list": {"i": ["1", "1", "1", "1"]}}, "num_args": {"i": "1"}, "fused_ops": {"list": {"s": ["Qmlhc0FkZA=="]}}, "TArgs": {"list": {"type": ["DT_FLOAT"]}}, "padding": {"s": "U0FNRQ=="}, "use_cudnn_on_gpu": {"b": true}, "leakyrelu_alpha": {"f": 0.2}, "epsilon": {"f": 0.0}, "T": {"type": "DT_FLOAT"}, "explicit_paddings": {"list": {}}, "dilations": {"list": {"i": ["1", "1", "1", "1"]}}}}, {"name": "model_57/tf.math.add_192/Add", "op": "_FusedConv2D", "input": ["model_57/tf.strided_slice_43/StridedSlice", "model_57/tf.nn.convolution_645/convolution/filter", "model_57/tf.math.add_192/Add/y"], "device": "/device:CPU:0", "attr": {"num_host_args": {"i": "0"}, "data_format": {"s": "TkhXQw=="}, "filter_format": {"s": "SFdJTw=="}, "strides": {"list": {"i": ["1", "1", "1", "1"]}}, "num_args": {"i": "1"}, "fused_ops": {"list": {"s": ["Qmlhc0FkZA=="]}}, "TArgs": {"list": {"type": ["DT_FLOAT"]}}, "padding": {"s": "U0FNRQ=="}, "use_cudnn_on_gpu": {"b": true}, "leakyrelu_alpha": {"f": 0.2}, "epsilon": {"f": 0.0}, "T": {"type": "DT_FLOAT"}, "explicit_paddings": {"list": {}}, "dilations": {"list": {"i": ["1", "1", "1", "1"]}}}}, {"name": "model_57/tf.math.sigmoid_126/Sigmoid", "op": "Sigmoid", "input": ["model_57/tf.math.add_191/Add"], "attr": {"T": {"type": "DT_FLOAT"}}}, {"name": "model_57/tf.math.sigmoid_127/Sigmoid", "op": "Sigmoid", "input": ["model_57/tf.math.add_192/Add"], "attr": {"T": {"type": "DT_FLOAT"}}}, {"name": "model_57/tf.math.multiply_573/Mul", "op": "Mul", "input": ["model_57/tf.math.add_191/Add", "model_57/tf.math.sigmoid_126/Sigmoid"], "attr": {"T": {"type": "DT_FLOAT"}}}, {"name": "model_57/tf.math.multiply_577/Mul", "op": "Mul", "input": ["model_57/tf.math.add_192/Add", "model_57/tf.math.sigmoid_127/Sigmoid"], "attr": {"T": {"type": "DT_FLOAT"}}}, {"name": "model_57/tf.math.add_193/Add", "op": "_FusedConv2D", "input": ["model_57/tf.math.multiply_573/Mul", "model_57/tf.nn.convolution_646/convolution/filter", "model_57/tf.math.add_193/Add/y"], "device": "/device:CPU:0", "attr": {"num_host_args": {"i": "0"}, "data_format": {"s": "TkhXQw=="}, "filter_format": {"s": "SFdJTw=="}, "fused_ops": {"list": {"s": ["Qmlhc0FkZA=="]}}, "num_args": {"i": "1"}, "strides": {"list": {"i": ["1", "1", "1", "1"]}}, "TArgs": {"list": {"type": ["DT_FLOAT"]}}, "padding": {"s": "U0FNRQ=="}, "use_cudnn_on_gpu": {"b": true}, "leakyrelu_alpha": {"f": 0.2}, "epsilon": {"f": 0.0}, "T": {"type": "DT_FLOAT"}, "explicit_paddings": {"list": {}}, "dilations": {"list": {"i": ["1", "1", "1", "1"]}}}}, {"name": "model_57/tf.math.sigmoid_128/Sigmoid", "op": "Sigmoid", "input": ["model_57/tf.math.add_193/Add"], "attr": {"T": {"type": "DT_FLOAT"}}}, {"name": "model_57/tf.math.multiply_581/Mul", "op": "Mul", "input": ["model_57/tf.math.add_193/Add", "model_57/tf.math.sigmoid_128/Sigmoid"], "attr": {"T": {"type": "DT_FLOAT"}}}, {"name": "model_57/tf.math.add_194/Add", "op": "_FusedConv2D", "input": ["model_57/tf.math.multiply_581/Mul", "model_57/tf.nn.convolution_647/convolution/filter", "model_57/tf.math.add_194/Add/y"], "device": "/device:CPU:0", "attr": {"num_host_args": {"i": "0"}, "data_format": {"s": "TkhXQw=="}, "filter_format": {"s": "SFdJTw=="}, "fused_ops": {"list": {"s": ["Qmlhc0FkZA=="]}}, "num_args": {"i": "1"}, "strides": {"list": {"i": ["1", "1", "1", "1"]}}, "TArgs": {"list": {"type": ["DT_FLOAT"]}}, "padding": {"s": "U0FNRQ=="}, "use_cudnn_on_gpu": {"b": true}, "leakyrelu_alpha": {"f": 0.2}, "epsilon": {"f": 0.0}, "T": {"type": "DT_FLOAT"}, "explicit_paddings": {"list": {}}, "dilations": {"list": {"i": ["1", "1", "1", "1"]}}}}, {"name": "model_57/tf.math.sigmoid_129/Sigmoid", "op": "Sigmoid", "input": ["model_57/tf.math.add_194/Add"], "attr": {"T": {"type": "DT_FLOAT"}}}, {"name": "model_57/tf.math.multiply_585/Mul", "op": "Mul", "input": ["model_57/tf.math.add_194/Add", "model_57/tf.math.sigmoid_129/Sigmoid"], "attr": {"T": {"type": "DT_FLOAT"}}}, {"name": "model_57/tf.math.add_196/Add", "op": "AddV2", "input": ["model_57/tf.math.multiply_573/Mul", "model_57/tf.math.multiply_585/Mul"], "attr": {"T": {"type": "DT_FLOAT"}}}, {"name": "model_57/tf.math.add_197/Add", "op": "_FusedConv2D", "input": ["model_57/tf.math.add_196/Add", "model_57/tf.nn.convolution_648/convolution/filter", "model_57/tf.math.add_197/Add/y"], "device": "/device:CPU:0", "attr": {"num_host_args": {"i": "0"}, "data_format": {"s": "TkhXQw=="}, "filter_format": {"s": "SFdJTw=="}, "fused_ops": {"list": {"s": ["Qmlhc0FkZA=="]}}, "num_args": {"i": "1"}, "strides": {"list": {"i": ["1", "1", "1", "1"]}}, "TArgs": {"list": {"type": ["DT_FLOAT"]}}, "padding": {"s": "U0FNRQ=="}, "use_cudnn_on_gpu": {"b": true}, "leakyrelu_alpha": {"f": 0.2}, "epsilon": {"f": 0.0}, "T": {"type": "DT_FLOAT"}, "explicit_paddings": {"list": {}}, "dilations": {"list": {"i": ["1", "1", "1", "1"]}}}}, {"name": "model_57/tf.math.sigmoid_130/Sigmoid", "op": "Sigmoid", "input": ["model_57/tf.math.add_197/Add"], "attr": {"T": {"type": "DT_FLOAT"}}}, {"name": "model_57/tf.math.multiply_591/Mul", "op": "Mul", "input": ["model_57/tf.math.add_197/Add", "model_57/tf.math.sigmoid_130/Sigmoid"], "attr": {"T": {"type": "DT_FLOAT"}}}, {"name": "model_57/tf.math.add_198/Add", "op": "_FusedConv2D", "input": ["model_57/tf.math.multiply_591/Mul", "model_57/tf.nn.convolution_649/convolution/filter", "model_57/tf.math.add_198/Add/y"], "device": "/device:CPU:0", "attr": {"num_host_args": {"i": "0"}, "data_format": {"s": "TkhXQw=="}, "filter_format": {"s": "SFdJTw=="}, "strides": {"list": {"i": ["1", "1", "1", "1"]}}, "num_args": {"i": "1"}, "fused_ops": {"list": {"s": ["Qmlhc0FkZA=="]}}, "TArgs": {"list": {"type": ["DT_FLOAT"]}}, "padding": {"s": "U0FNRQ=="}, "use_cudnn_on_gpu": {"b": true}, "leakyrelu_alpha": {"f": 0.2}, "epsilon": {"f": 0.0}, "T": {"type": "DT_FLOAT"}, "explicit_paddings": {"list": {}}, "dilations": {"list": {"i": ["1", "1", "1", "1"]}}}}, {"name": "model_57/tf.math.sigmoid_131/Sigmoid", "op": "Sigmoid", "input": ["model_57/tf.math.add_198/Add"], "attr": {"T": {"type": "DT_FLOAT"}}}, {"name": "model_57/tf.math.multiply_595/Mul", "op": "Mul", "input": ["model_57/tf.math.add_198/Add", "model_57/tf.math.sigmoid_131/Sigmoid"], "attr": {"T": {"type": "DT_FLOAT"}}}, {"name": "model_57/tf.math.add_200/Add", "op": "AddV2", "input": ["model_57/tf.math.add_196/Add", "model_57/tf.math.multiply_595/Mul"], "attr": {"T": {"type": "DT_FLOAT"}}}, {"name": "model_57/tf.concat_40/concat", "op": "ConcatV2", "input": ["model_57/tf.math.add_200/Add", "model_57/tf.math.multiply_577/Mul", "model_57/tf.concat_40/concat/axis"], "attr": {"N": {"i": "2"}, "T": {"type": "DT_FLOAT"}, "Tidx": {"type": "DT_INT32"}}}, {"name": "model_57/tf.math.add_201/Add", "op": "_FusedConv2D", "input": ["model_57/tf.concat_40/concat", "model_57/tf.nn.convolution_650/convolution/filter", "model_57/tf.math.add_201/Add/y"], "device": "/device:CPU:0", "attr": {"num_host_args": {"i": "0"}, "data_format": {"s": "TkhXQw=="}, "filter_format": {"s": "SFdJTw=="}, "strides": {"list": {"i": ["1", "1", "1", "1"]}}, "num_args": {"i": "1"}, "fused_ops": {"list": {"s": ["Qmlhc0FkZA=="]}}, "TArgs": {"list": {"type": ["DT_FLOAT"]}}, "padding": {"s": "U0FNRQ=="}, "use_cudnn_on_gpu": {"b": true}, "leakyrelu_alpha": {"f": 0.2}, "epsilon": {"f": 0.0}, "T": {"type": "DT_FLOAT"}, "explicit_paddings": {"list": {}}, "dilations": {"list": {"i": ["1", "1", "1", "1"]}}}}, {"name": "model_57/tf.math.sigmoid_132/Sigmoid", "op": "Sigmoid", "input": ["model_57/tf.math.add_201/Add"], "attr": {"T": {"type": "DT_FLOAT"}}}, {"name": "model_57/tf.math.multiply_601/Mul", "op": "Mul", "input": ["model_57/tf.math.add_201/Add", "model_57/tf.math.sigmoid_132/Sigmoid"], "attr": {"T": {"type": "DT_FLOAT"}}}, {"name": "model_57/tf.concat_41/concat", "op": "ConcatV2", "input": ["model_57/tf.strided_slice_42/StridedSlice", "model_57/tf.strided_slice_43/StridedSlice", "model_57/tf.math.multiply_601/Mul", "model_57/tf.concat_41/concat/axis"], "attr": {"N": {"i": "3"}, "T": {"type": "DT_FLOAT"}, "Tidx": {"type": "DT_INT32"}}}, {"name": "model_57/tf.math.add_202/Add", "op": "_FusedConv2D", "input": ["model_57/tf.concat_41/concat", "model_57/tf.nn.convolution_651/convolution/filter", "model_57/tf.math.add_202/Add/y"], "device": "/device:CPU:0", "attr": {"num_host_args": {"i": "0"}, "data_format": {"s": "TkhXQw=="}, "filter_format": {"s": "SFdJTw=="}, "fused_ops": {"list": {"s": ["Qmlhc0FkZA=="]}}, "num_args": {"i": "1"}, "strides": {"list": {"i": ["1", "1", "1", "1"]}}, "TArgs": {"list": {"type": ["DT_FLOAT"]}}, "padding": {"s": "U0FNRQ=="}, "use_cudnn_on_gpu": {"b": true}, "leakyrelu_alpha": {"f": 0.2}, "epsilon": {"f": 0.0}, "T": {"type": "DT_FLOAT"}, "explicit_paddings": {"list": {}}, "dilations": {"list": {"i": ["1", "1", "1", "1"]}}}}, {"name": "model_57/tf.math.sigmoid_133/Sigmoid", "op": "Sigmoid", "input": ["model_57/tf.math.add_202/Add"], "attr": {"T": {"type": "DT_FLOAT"}}}, {"name": "model_57/tf.math.multiply_605/Mul", "op": "Mul", "input": ["model_57/tf.math.add_202/Add", "model_57/tf.math.sigmoid_133/Sigmoid"], "attr": {"T": {"type": "DT_FLOAT"}}}, {"name": "model_57/tf.compat.v1.pad_16/Pad", "op": "Pad", "input": ["model_57/tf.math.multiply_605/Mul", "model_57/tf.compat.v1.pad_16/Pad/paddings"], "attr": {"Tpaddings": {"type": "DT_INT32"}, "T": {"type": "DT_FLOAT"}}}, {"name": "model_57/tf.math.add_203/Add", "op": "_FusedConv2D", "input": ["model_57/tf.compat.v1.pad_16/Pad", "model_57/tf.nn.convolution_652/convolution/filter", "model_57/tf.math.add_203/Add/y"], "device": "/device:CPU:0", "attr": {"num_host_args": {"i": "0"}, "data_format": {"s": "TkhXQw=="}, "filter_format": {"s": "SFdJTw=="}, "strides": {"list": {"i": ["1", "2", "2", "1"]}}, "num_args": {"i": "1"}, "fused_ops": {"list": {"s": ["Qmlhc0FkZA=="]}}, "TArgs": {"list": {"type": ["DT_FLOAT"]}}, "padding": {"s": "VkFMSUQ="}, "use_cudnn_on_gpu": {"b": true}, "leakyrelu_alpha": {"f": 0.2}, "epsilon": {"f": 0.0}, "T": {"type": "DT_FLOAT"}, "explicit_paddings": {"list": {}}, "dilations": {"list": {"i": ["1", "1", "1", "1"]}}}}, {"name": "model_57/tf.math.sigmoid_134/Sigmoid", "op": "Sigmoid", "input": ["model_57/tf.math.add_203/Add"], "attr": {"T": {"type": "DT_FLOAT"}}}, {"name": "model_57/tf.math.multiply_609/Mul", "op": "Mul", "input": ["model_57/tf.math.add_203/Add", "model_57/tf.math.sigmoid_134/Sigmoid"], "attr": {"T": {"type": "DT_FLOAT"}}}, {"name": "model_57/tf.math.add_204/Add", "op": "_FusedConv2D", "input": ["model_57/tf.math.multiply_609/Mul", "model_57/tf.nn.convolution_653/convolution/filter", "model_57/tf.math.add_204/Add/y"], "device": "/device:CPU:0", "attr": {"num_host_args": {"i": "0"}, "data_format": {"s": "TkhXQw=="}, "filter_format": {"s": "SFdJTw=="}, "strides": {"list": {"i": ["1", "1", "1", "1"]}}, "num_args": {"i": "1"}, "fused_ops": {"list": {"s": ["Qmlhc0FkZA=="]}}, "TArgs": {"list": {"type": ["DT_FLOAT"]}}, "padding": {"s": "U0FNRQ=="}, "use_cudnn_on_gpu": {"b": true}, "leakyrelu_alpha": {"f": 0.2}, "epsilon": {"f": 0.0}, "T": {"type": "DT_FLOAT"}, "explicit_paddings": {"list": {}}, "dilations": {"list": {"i": ["1", "1", "1", "1"]}}}}, {"name": "model_57/tf.math.sigmoid_135/Sigmoid", "op": "Sigmoid", "input": ["model_57/tf.math.add_204/Add"], "attr": {"T": {"type": "DT_FLOAT"}}}, {"name": "model_57/tf.math.multiply_613/Mul", "op": "Mul", "input": ["model_57/tf.math.add_204/Add", "model_57/tf.math.sigmoid_135/Sigmoid"], "attr": {"T": {"type": "DT_FLOAT"}}}, {"name": "model_57/tf.strided_slice_44/StridedSlice", "op": "StridedSlice", "input": ["model_57/tf.math.multiply_613/Mul", "model_57/tf.strided_slice_44/ones_like/tensor", "model_57/tf.strided_slice_44/StridedSlice/end", "model_57/tf.strided_slice_44/ones_like"], "attr": {"shrink_axis_mask": {"i": "0"}, "Index": {"type": "DT_INT64"}, "new_axis_mask": {"i": "0"}, "begin_mask": {"i": "15"}, "end_mask": {"i": "7"}, "T": {"type": "DT_FLOAT"}, "ellipsis_mask": {"i": "0"}}}, {"name": "model_57/tf.strided_slice_45/StridedSlice", "op": "StridedSlice", "input": ["model_57/tf.math.multiply_613/Mul", "model_57/tf.strided_slice_45/ones_like/tensor", "model_57/tf.strided_slice_45/StridedSlice/end", "model_57/tf.strided_slice_45/ones_like"], "attr": {"shrink_axis_mask": {"i": "0"}, "Index": {"type": "DT_INT64"}, "new_axis_mask": {"i": "0"}, "begin_mask": {"i": "7"}, "end_mask": {"i": "7"}, "T": {"type": "DT_FLOAT"}, "ellipsis_mask": {"i": "0"}}}, {"name": "model_57/tf.math.add_205/Add", "op": "_FusedConv2D", "input": ["model_57/tf.strided_slice_45/StridedSlice", "model_57/tf.nn.convolution_654/convolution/filter", "model_57/tf.math.add_205/Add/y"], "device": "/device:CPU:0", "attr": {"num_host_args": {"i": "0"}, "data_format": {"s": "TkhXQw=="}, "filter_format": {"s": "SFdJTw=="}, "strides": {"list": {"i": ["1", "1", "1", "1"]}}, "num_args": {"i": "1"}, "fused_ops": {"list": {"s": ["Qmlhc0FkZA=="]}}, "TArgs": {"list": {"type": ["DT_FLOAT"]}}, "padding": {"s": "U0FNRQ=="}, "use_cudnn_on_gpu": {"b": true}, "leakyrelu_alpha": {"f": 0.2}, "epsilon": {"f": 0.0}, "T": {"type": "DT_FLOAT"}, "explicit_paddings": {"list": {}}, "dilations": {"list": {"i": ["1", "1", "1", "1"]}}}}, {"name": "model_57/tf.math.add_206/Add", "op": "_FusedConv2D", "input": ["model_57/tf.strided_slice_45/StridedSlice", "model_57/tf.nn.convolution_655/convolution/filter", "model_57/tf.math.add_206/Add/y"], "device": "/device:CPU:0", "attr": {"num_host_args": {"i": "0"}, "data_format": {"s": "TkhXQw=="}, "filter_format": {"s": "SFdJTw=="}, "fused_ops": {"list": {"s": ["Qmlhc0FkZA=="]}}, "num_args": {"i": "1"}, "strides": {"list": {"i": ["1", "1", "1", "1"]}}, "TArgs": {"list": {"type": ["DT_FLOAT"]}}, "padding": {"s": "U0FNRQ=="}, "use_cudnn_on_gpu": {"b": true}, "leakyrelu_alpha": {"f": 0.2}, "epsilon": {"f": 0.0}, "T": {"type": "DT_FLOAT"}, "explicit_paddings": {"list": {}}, "dilations": {"list": {"i": ["1", "1", "1", "1"]}}}}, {"name": "model_57/tf.math.sigmoid_136/Sigmoid", "op": "Sigmoid", "input": ["model_57/tf.math.add_205/Add"], "attr": {"T": {"type": "DT_FLOAT"}}}, {"name": "model_57/tf.math.sigmoid_137/Sigmoid", "op": "Sigmoid", "input": ["model_57/tf.math.add_206/Add"], "attr": {"T": {"type": "DT_FLOAT"}}}, {"name": "model_57/tf.math.multiply_617/Mul", "op": "Mul", "input": ["model_57/tf.math.add_205/Add", "model_57/tf.math.sigmoid_136/Sigmoid"], "attr": {"T": {"type": "DT_FLOAT"}}}, {"name": "model_57/tf.math.multiply_621/Mul", "op": "Mul", "input": ["model_57/tf.math.add_206/Add", "model_57/tf.math.sigmoid_137/Sigmoid"], "attr": {"T": {"type": "DT_FLOAT"}}}, {"name": "model_57/tf.math.add_207/Add", "op": "_FusedConv2D", "input": ["model_57/tf.math.multiply_617/Mul", "model_57/tf.nn.convolution_656/convolution/filter", "model_57/tf.math.add_207/Add/y"], "device": "/device:CPU:0", "attr": {"num_host_args": {"i": "0"}, "data_format": {"s": "TkhXQw=="}, "filter_format": {"s": "SFdJTw=="}, "strides": {"list": {"i": ["1", "1", "1", "1"]}}, "num_args": {"i": "1"}, "fused_ops": {"list": {"s": ["Qmlhc0FkZA=="]}}, "TArgs": {"list": {"type": ["DT_FLOAT"]}}, "padding": {"s": "U0FNRQ=="}, "use_cudnn_on_gpu": {"b": true}, "leakyrelu_alpha": {"f": 0.2}, "epsilon": {"f": 0.0}, "T": {"type": "DT_FLOAT"}, "explicit_paddings": {"list": {}}, "dilations": {"list": {"i": ["1", "1", "1", "1"]}}}}, {"name": "model_57/tf.math.sigmoid_138/Sigmoid", "op": "Sigmoid", "input": ["model_57/tf.math.add_207/Add"], "attr": {"T": {"type": "DT_FLOAT"}}}, {"name": "model_57/tf.math.multiply_625/Mul", "op": "Mul", "input": ["model_57/tf.math.add_207/Add", "model_57/tf.math.sigmoid_138/Sigmoid"], "attr": {"T": {"type": "DT_FLOAT"}}}, {"name": "model_57/tf.math.add_208/Add", "op": "_FusedConv2D", "input": ["model_57/tf.math.multiply_625/Mul", "model_57/tf.nn.convolution_657/convolution/filter", "model_57/tf.math.add_208/Add/y"], "device": "/device:CPU:0", "attr": {"num_host_args": {"i": "0"}, "data_format": {"s": "TkhXQw=="}, "filter_format": {"s": "SFdJTw=="}, "strides": {"list": {"i": ["1", "1", "1", "1"]}}, "num_args": {"i": "1"}, "fused_ops": {"list": {"s": ["Qmlhc0FkZA=="]}}, "TArgs": {"list": {"type": ["DT_FLOAT"]}}, "padding": {"s": "U0FNRQ=="}, "use_cudnn_on_gpu": {"b": true}, "leakyrelu_alpha": {"f": 0.2}, "epsilon": {"f": 0.0}, "T": {"type": "DT_FLOAT"}, "explicit_paddings": {"list": {}}, "dilations": {"list": {"i": ["1", "1", "1", "1"]}}}}, {"name": "model_57/tf.math.sigmoid_139/Sigmoid", "op": "Sigmoid", "input": ["model_57/tf.math.add_208/Add"], "attr": {"T": {"type": "DT_FLOAT"}}}, {"name": "model_57/tf.math.multiply_629/Mul", "op": "Mul", "input": ["model_57/tf.math.add_208/Add", "model_57/tf.math.sigmoid_139/Sigmoid"], "attr": {"T": {"type": "DT_FLOAT"}}}, {"name": "model_57/tf.math.add_210/Add", "op": "AddV2", "input": ["model_57/tf.math.multiply_617/Mul", "model_57/tf.math.multiply_629/Mul"], "attr": {"T": {"type": "DT_FLOAT"}}}, {"name": "model_57/tf.math.add_211/Add", "op": "_FusedConv2D", "input": ["model_57/tf.math.add_210/Add", "model_57/tf.nn.convolution_658/convolution/filter", "model_57/tf.math.add_211/Add/y"], "device": "/device:CPU:0", "attr": {"num_host_args": {"i": "0"}, "data_format": {"s": "TkhXQw=="}, "filter_format": {"s": "SFdJTw=="}, "strides": {"list": {"i": ["1", "1", "1", "1"]}}, "num_args": {"i": "1"}, "fused_ops": {"list": {"s": ["Qmlhc0FkZA=="]}}, "TArgs": {"list": {"type": ["DT_FLOAT"]}}, "padding": {"s": "U0FNRQ=="}, "use_cudnn_on_gpu": {"b": true}, "leakyrelu_alpha": {"f": 0.2}, "epsilon": {"f": 0.0}, "T": {"type": "DT_FLOAT"}, "explicit_paddings": {"list": {}}, "dilations": {"list": {"i": ["1", "1", "1", "1"]}}}}, {"name": "model_57/tf.math.sigmoid_140/Sigmoid", "op": "Sigmoid", "input": ["model_57/tf.math.add_211/Add"], "attr": {"T": {"type": "DT_FLOAT"}}}, {"name": "model_57/tf.math.multiply_635/Mul", "op": "Mul", "input": ["model_57/tf.math.add_211/Add", "model_57/tf.math.sigmoid_140/Sigmoid"], "attr": {"T": {"type": "DT_FLOAT"}}}, {"name": "model_57/tf.math.add_212/Add", "op": "_FusedConv2D", "input": ["model_57/tf.math.multiply_635/Mul", "model_57/tf.nn.convolution_659/convolution/filter", "model_57/tf.math.add_212/Add/y"], "device": "/device:CPU:0", "attr": {"num_host_args": {"i": "0"}, "data_format": {"s": "TkhXQw=="}, "filter_format": {"s": "SFdJTw=="}, "strides": {"list": {"i": ["1", "1", "1", "1"]}}, "num_args": {"i": "1"}, "fused_ops": {"list": {"s": ["Qmlhc0FkZA=="]}}, "TArgs": {"list": {"type": ["DT_FLOAT"]}}, "padding": {"s": "U0FNRQ=="}, "use_cudnn_on_gpu": {"b": true}, "leakyrelu_alpha": {"f": 0.2}, "epsilon": {"f": 0.0}, "T": {"type": "DT_FLOAT"}, "explicit_paddings": {"list": {}}, "dilations": {"list": {"i": ["1", "1", "1", "1"]}}}}, {"name": "model_57/tf.math.sigmoid_141/Sigmoid", "op": "Sigmoid", "input": ["model_57/tf.math.add_212/Add"], "attr": {"T": {"type": "DT_FLOAT"}}}, {"name": "model_57/tf.math.multiply_639/Mul", "op": "Mul", "input": ["model_57/tf.math.add_212/Add", "model_57/tf.math.sigmoid_141/Sigmoid"], "attr": {"T": {"type": "DT_FLOAT"}}}, {"name": "model_57/tf.math.add_214/Add", "op": "AddV2", "input": ["model_57/tf.math.add_210/Add", "model_57/tf.math.multiply_639/Mul"], "attr": {"T": {"type": "DT_FLOAT"}}}, {"name": "model_57/tf.concat_42/concat", "op": "ConcatV2", "input": ["model_57/tf.math.add_214/Add", "model_57/tf.math.multiply_621/Mul", "model_57/tf.concat_42/concat/axis"], "attr": {"N": {"i": "2"}, "T": {"type": "DT_FLOAT"}, "Tidx": {"type": "DT_INT32"}}}, {"name": "model_57/tf.math.add_215/Add", "op": "_FusedConv2D", "input": ["model_57/tf.concat_42/concat", "model_57/tf.nn.convolution_660/convolution/filter", "model_57/tf.math.add_215/Add/y"], "device": "/device:CPU:0", "attr": {"num_host_args": {"i": "0"}, "data_format": {"s": "TkhXQw=="}, "filter_format": {"s": "SFdJTw=="}, "fused_ops": {"list": {"s": ["Qmlhc0FkZA=="]}}, "num_args": {"i": "1"}, "strides": {"list": {"i": ["1", "1", "1", "1"]}}, "TArgs": {"list": {"type": ["DT_FLOAT"]}}, "padding": {"s": "U0FNRQ=="}, "use_cudnn_on_gpu": {"b": true}, "leakyrelu_alpha": {"f": 0.2}, "epsilon": {"f": 0.0}, "T": {"type": "DT_FLOAT"}, "explicit_paddings": {"list": {}}, "dilations": {"list": {"i": ["1", "1", "1", "1"]}}}}, {"name": "model_57/tf.math.sigmoid_142/Sigmoid", "op": "Sigmoid", "input": ["model_57/tf.math.add_215/Add"], "attr": {"T": {"type": "DT_FLOAT"}}}, {"name": "model_57/tf.math.multiply_645/Mul", "op": "Mul", "input": ["model_57/tf.math.add_215/Add", "model_57/tf.math.sigmoid_142/Sigmoid"], "attr": {"T": {"type": "DT_FLOAT"}}}, {"name": "model_57/tf.concat_43/concat", "op": "ConcatV2", "input": ["model_57/tf.strided_slice_44/StridedSlice", "model_57/tf.strided_slice_45/StridedSlice", "model_57/tf.math.multiply_645/Mul", "model_57/tf.concat_43/concat/axis"], "attr": {"N": {"i": "3"}, "T": {"type": "DT_FLOAT"}, "Tidx": {"type": "DT_INT32"}}}, {"name": "model_57/tf.math.add_216/Add", "op": "_FusedConv2D", "input": ["model_57/tf.concat_43/concat", "model_57/tf.nn.convolution_661/convolution/filter", "model_57/tf.math.add_216/Add/y"], "device": "/device:CPU:0", "attr": {"num_host_args": {"i": "0"}, "data_format": {"s": "TkhXQw=="}, "filter_format": {"s": "SFdJTw=="}, "fused_ops": {"list": {"s": ["Qmlhc0FkZA=="]}}, "num_args": {"i": "1"}, "strides": {"list": {"i": ["1", "1", "1", "1"]}}, "TArgs": {"list": {"type": ["DT_FLOAT"]}}, "padding": {"s": "U0FNRQ=="}, "use_cudnn_on_gpu": {"b": true}, "leakyrelu_alpha": {"f": 0.2}, "epsilon": {"f": 0.0}, "T": {"type": "DT_FLOAT"}, "explicit_paddings": {"list": {}}, "dilations": {"list": {"i": ["1", "1", "1", "1"]}}}}, {"name": "model_57/tf.math.sigmoid_143/Sigmoid", "op": "Sigmoid", "input": ["model_57/tf.math.add_216/Add"], "attr": {"T": {"type": "DT_FLOAT"}}}, {"name": "model_57/tf.math.multiply_649/Mul", "op": "Mul", "input": ["model_57/tf.math.add_216/Add", "model_57/tf.math.sigmoid_143/Sigmoid"], "attr": {"T": {"type": "DT_FLOAT"}}}, {"name": "model_57/tf.math.add_217/Add", "op": "_FusedConv2D", "input": ["model_57/tf.math.multiply_649/Mul", "model_57/tf.nn.convolution_662/convolution/filter", "model_57/tf.math.add_217/Add/y"], "device": "/device:CPU:0", "attr": {"num_host_args": {"i": "0"}, "data_format": {"s": "TkhXQw=="}, "filter_format": {"s": "SFdJTw=="}, "fused_ops": {"list": {"s": ["Qmlhc0FkZA=="]}}, "num_args": {"i": "1"}, "strides": {"list": {"i": ["1", "1", "1", "1"]}}, "TArgs": {"list": {"type": ["DT_FLOAT"]}}, "padding": {"s": "U0FNRQ=="}, "use_cudnn_on_gpu": {"b": true}, "leakyrelu_alpha": {"f": 0.2}, "epsilon": {"f": 0.0}, "T": {"type": "DT_FLOAT"}, "explicit_paddings": {"list": {}}, "dilations": {"list": {"i": ["1", "1", "1", "1"]}}}}, {"name": "model_57/tf.math.sigmoid_144/Sigmoid", "op": "Sigmoid", "input": ["model_57/tf.math.add_217/Add"], "attr": {"T": {"type": "DT_FLOAT"}}}, {"name": "model_57/tf.math.multiply_653/Mul", "op": "Mul", "input": ["model_57/tf.math.add_217/Add", "model_57/tf.math.sigmoid_144/Sigmoid"], "attr": {"T": {"type": "DT_FLOAT"}}}, {"name": "model_57/tf.strided_slice_46/StridedSlice", "op": "StridedSlice", "input": ["model_57/tf.math.multiply_653/Mul", "model_57/tf.strided_slice_46/StridedSlice/begin", "model_57/tf.strided_slice_46/StridedSlice/end", "model_57/tf.strided_slice_46/ones_like"], "attr": {"shrink_axis_mask": {"i": "0"}, "Index": {"type": "DT_INT32"}, "new_axis_mask": {"i": "0"}, "begin_mask": {"i": "7"}, "T": {"type": "DT_FLOAT"}, "end_mask": {"i": "7"}, "ellipsis_mask": {"i": "0"}}}, {"name": "model_57/tf.strided_slice_47/StridedSlice", "op": "StridedSlice", "input": ["model_57/tf.math.multiply_653/Mul", "model_57/tf.strided_slice_47/StridedSlice/begin", "model_57/tf.strided_slice_47/StridedSlice/end", "model_57/tf.strided_slice_47/ones_like"], "attr": {"shrink_axis_mask": {"i": "0"}, "Index": {"type": "DT_INT32"}, "new_axis_mask": {"i": "0"}, "begin_mask": {"i": "7"}, "end_mask": {"i": "7"}, "T": {"type": "DT_FLOAT"}, "ellipsis_mask": {"i": "0"}}}, {"name": "model_57/tf.math.add_218/Add", "op": "_FusedConv2D", "input": ["model_57/tf.strided_slice_47/StridedSlice", "model_57/tf.nn.convolution_663/convolution/filter", "model_57/tf.math.add_218/Add/y"], "device": "/device:CPU:0", "attr": {"num_host_args": {"i": "0"}, "data_format": {"s": "TkhXQw=="}, "filter_format": {"s": "SFdJTw=="}, "fused_ops": {"list": {"s": ["Qmlhc0FkZA=="]}}, "num_args": {"i": "1"}, "strides": {"list": {"i": ["1", "1", "1", "1"]}}, "TArgs": {"list": {"type": ["DT_FLOAT"]}}, "padding": {"s": "U0FNRQ=="}, "use_cudnn_on_gpu": {"b": true}, "leakyrelu_alpha": {"f": 0.2}, "epsilon": {"f": 0.0}, "T": {"type": "DT_FLOAT"}, "explicit_paddings": {"list": {}}, "dilations": {"list": {"i": ["1", "1", "1", "1"]}}}}, {"name": "model_57/tf.compat.v1.transpose_240/transpose", "op": "Transpose", "input": ["model_57/tf.math.add_218/Add", "model_57/tf.compat.v1.transpose_240/transpose/perm"], "attr": {"Tperm": {"type": "DT_INT32"}, "T": {"type": "DT_FLOAT"}}}, {"name": "model_57/tf.reshape_36/Reshape", "op": "Reshape", "input": ["model_57/tf.compat.v1.transpose_240/transpose", "model_57/tf.reshape_36/Reshape/shape"], "attr": {"T": {"type": "DT_FLOAT"}, "Tshape": {"type": "DT_INT32"}}}, {"name": "model_57/tf.strided_slice_48/StridedSlice", "op": "StridedSlice", "input": ["model_57/tf.reshape_36/Reshape", "model_57/tf.strided_slice_48/StridedSlice/begin", "model_57/tf.strided_slice_48/StridedSlice/end", "model_57/tf.strided_slice_48/ones_like"], "attr": {"shrink_axis_mask": {"i": "0"}, "new_axis_mask": {"i": "0"}, "Index": {"type": "DT_INT32"}, "begin_mask": {"i": "11"}, "end_mask": {"i": "11"}, "T": {"type": "DT_FLOAT"}, "ellipsis_mask": {"i": "0"}}}, {"name": "model_57/tf.strided_slice_49/StridedSlice", "op": "StridedSlice", "input": ["model_57/tf.reshape_36/Reshape", "model_57/tf.strided_slice_49/StridedSlice/begin", "model_57/tf.strided_slice_49/StridedSlice/end", "model_57/tf.strided_slice_49/ones_like"], "attr": {"shrink_axis_mask": {"i": "0"}, "new_axis_mask": {"i": "0"}, "Index": {"type": "DT_INT32"}, "begin_mask": {"i": "11"}, "T": {"type": "DT_FLOAT"}, "end_mask": {"i": "11"}, "ellipsis_mask": {"i": "0"}}}, {"name": "model_57/tf.strided_slice_50/StridedSlice", "op": "StridedSlice", "input": ["model_57/tf.reshape_36/Reshape", "model_57/tf.strided_slice_50/StridedSlice/begin", "model_57/tf.strided_slice_50/StridedSlice/end", "model_57/tf.strided_slice_50/ones_like"], "attr": {"shrink_axis_mask": {"i": "0"}, "new_axis_mask": {"i": "0"}, "Index": {"type": "DT_INT32"}, "begin_mask": {"i": "11"}, "end_mask": {"i": "11"}, "T": {"type": "DT_FLOAT"}, "ellipsis_mask": {"i": "0"}}}, {"name": "model_57/tf.linalg.matmul_10/ArithmeticOptimizer/FoldTransposeIntoMatMul_MatMul", "op": "BatchMatMulV2", "input": ["model_57/tf.strided_slice_48/StridedSlice", "model_57/tf.strided_slice_49/StridedSlice"], "attr": {"grad_y": {"b": false}, "adj_x": {"b": true}, "T": {"type": "DT_FLOAT"}, "adj_y": {"b": false}, "grad_x": {"b": false}}}, {"name": "model_57/tf.reshape_39/Reshape", "op": "Reshape", "input": ["model_57/tf.strided_slice_50/StridedSlice", "model_57/tf.reshape_39/Reshape/shape"], "attr": {"T": {"type": "DT_FLOAT"}, "Tshape": {"type": "DT_INT32"}}}, {"name": "model_57/tf.math.multiply_656/Mul", "op": "Mul", "input": ["model_57/tf.linalg.matmul_10/ArithmeticOptimizer/FoldTransposeIntoMatMul_MatMul", "model_57/tf.math.multiply_656/Mul/y"], "attr": {"T": {"type": "DT_FLOAT"}}}, {"name": "model_57/tf.compat.v1.transpose_248/transpose", "op": "Transpose", "input": ["model_57/tf.reshape_39/Reshape", "model_57/tf.compat.v1.transpose_248/transpose/perm"], "attr": {"Tperm": {"type": "DT_INT32"}, "T": {"type": "DT_FLOAT"}}}, {"name": "model_57/tf.nn.softmax_7/wa/model.9/m/m.0/attn/Softmax", "op": "Softmax", "input": ["model_57/tf.math.multiply_656/Mul"], "attr": {"T": {"type": "DT_FLOAT"}}}, {"name": "model_57/tf.split_2/split", "op": "Split", "input": ["model_57/tf.split_2/split/split_dim", "model_57/tf.compat.v1.transpose_248/transpose"], "attr": {"num_split": {"i": "256"}, "T": {"type": "DT_FLOAT"}}}, {"name": "model_57/tf.linalg.matmul_12/ArithmeticOptimizer/FoldTransposeIntoMatMul_MatMul", "op": "BatchMatMulV2", "input": ["model_57/tf.strided_slice_50/StridedSlice", "model_57/tf.nn.softmax_7/wa/model.9/m/m.0/attn/Softmax"], "attr": {"grad_y": {"b": false}, "adj_x": {"b": false}, "T": {"type": "DT_FLOAT"}, "adj_y": {"b": true}, "grad_x": {"b": false}}}, {"name": "model_57/tf.nn.convolution_664/convolution", "op": "Conv2D", "input": ["model_57/tf.split_2/split", "model_57/tf.nn.convolution_664/convolution/filter"], "device": "/device:CPU:0", "attr": {"padding": {"s": "U0FNRQ=="}, "data_format": {"s": "TkhXQw=="}, "use_cudnn_on_gpu": {"b": true}, "strides": {"list": {"i": ["1", "1", "1", "1"]}}, "T": {"type": "DT_FLOAT"}, "explicit_paddings": {"list": {}}, "dilations": {"list": {"i": ["1", "1", "1", "1"]}}}}, {"name": "model_57/tf.nn.convolution_665/convolution", "op": "Conv2D", "input": ["model_57/tf.split_2/split:1", "model_57/tf.nn.convolution_665/convolution/filter"], "device": "/device:CPU:0", "attr": {"padding": {"s": "U0FNRQ=="}, "data_format": {"s": "TkhXQw=="}, "use_cudnn_on_gpu": {"b": true}, "strides": {"list": {"i": ["1", "1", "1", "1"]}}, "T": {"type": "DT_FLOAT"}, "explicit_paddings": {"list": {}}, "dilations": {"list": {"i": ["1", "1", "1", "1"]}}}}, {"name": "model_57/tf.nn.convolution_666/convolution", "op": "Conv2D", "input": ["model_57/tf.split_2/split:2", "model_57/tf.nn.convolution_666/convolution/filter"], "device": "/device:CPU:0", "attr": {"padding": {"s": "U0FNRQ=="}, "data_format": {"s": "TkhXQw=="}, "use_cudnn_on_gpu": {"b": true}, "strides": {"list": {"i": ["1", "1", "1", "1"]}}, "T": {"type": "DT_FLOAT"}, "explicit_paddings": {"list": {}}, "dilations": {"list": {"i": ["1", "1", "1", "1"]}}}}, {"name": "model_57/tf.nn.convolution_667/convolution", "op": "Conv2D", "input": ["model_57/tf.split_2/split:3", "model_57/tf.nn.convolution_667/convolution/filter"], "device": "/device:CPU:0", "attr": {"padding": {"s": "U0FNRQ=="}, "data_format": {"s": "TkhXQw=="}, "use_cudnn_on_gpu": {"b": true}, "strides": {"list": {"i": ["1", "1", "1", "1"]}}, "T": {"type": "DT_FLOAT"}, "explicit_paddings": {"list": {}}, "dilations": {"list": {"i": ["1", "1", "1", "1"]}}}}, {"name": "model_57/tf.nn.convolution_668/convolution", "op": "Conv2D", "input": ["model_57/tf.split_2/split:4", "model_57/tf.nn.convolution_668/convolution/filter"], "device": "/device:CPU:0", "attr": {"padding": {"s": "U0FNRQ=="}, "data_format": {"s": "TkhXQw=="}, "use_cudnn_on_gpu": {"b": true}, "strides": {"list": {"i": ["1", "1", "1", "1"]}}, "T": {"type": "DT_FLOAT"}, "explicit_paddings": {"list": {}}, "dilations": {"list": {"i": ["1", "1", "1", "1"]}}}}, {"name": "model_57/tf.nn.convolution_669/convolution", "op": "Conv2D", "input": ["model_57/tf.split_2/split:5", "model_57/tf.nn.convolution_669/convolution/filter"], "device": "/device:CPU:0", "attr": {"padding": {"s": "U0FNRQ=="}, "data_format": {"s": "TkhXQw=="}, "use_cudnn_on_gpu": {"b": true}, "strides": {"list": {"i": ["1", "1", "1", "1"]}}, "T": {"type": "DT_FLOAT"}, "explicit_paddings": {"list": {}}, "dilations": {"list": {"i": ["1", "1", "1", "1"]}}}}, {"name": "model_57/tf.nn.convolution_670/convolution", "op": "Conv2D", "input": ["model_57/tf.split_2/split:6", "model_57/tf.nn.convolution_670/convolution/filter"], "device": "/device:CPU:0", "attr": {"padding": {"s": "U0FNRQ=="}, "data_format": {"s": "TkhXQw=="}, "strides": {"list": {"i": ["1", "1", "1", "1"]}}, "use_cudnn_on_gpu": {"b": true}, "T": {"type": "DT_FLOAT"}, "explicit_paddings": {"list": {}}, "dilations": {"list": {"i": ["1", "1", "1", "1"]}}}}, {"name": "model_57/tf.nn.convolution_671/convolution", "op": "Conv2D", "input": ["model_57/tf.split_2/split:7", "model_57/tf.nn.convolution_671/convolution/filter"], "device": "/device:CPU:0", "attr": {"padding": {"s": "U0FNRQ=="}, "data_format": {"s": "TkhXQw=="}, "strides": {"list": {"i": ["1", "1", "1", "1"]}}, "use_cudnn_on_gpu": {"b": true}, "T": {"type": "DT_FLOAT"}, "explicit_paddings": {"list": {}}, "dilations": {"list": {"i": ["1", "1", "1", "1"]}}}}, {"name": "model_57/tf.nn.convolution_672/convolution", "op": "Conv2D", "input": ["model_57/tf.split_2/split:8", "model_57/tf.nn.convolution_672/convolution/filter"], "device": "/device:CPU:0", "attr": {"padding": {"s": "U0FNRQ=="}, "data_format": {"s": "TkhXQw=="}, "use_cudnn_on_gpu": {"b": true}, "strides": {"list": {"i": ["1", "1", "1", "1"]}}, "T": {"type": "DT_FLOAT"}, "explicit_paddings": {"list": {}}, "dilations": {"list": {"i": ["1", "1", "1", "1"]}}}}, {"name": "model_57/tf.nn.convolution_673/convolution", "op": "Conv2D", "input": ["model_57/tf.split_2/split:9", "model_57/tf.nn.convolution_673/convolution/filter"], "device": "/device:CPU:0", "attr": {"padding": {"s": "U0FNRQ=="}, "data_format": {"s": "TkhXQw=="}, "use_cudnn_on_gpu": {"b": true}, "strides": {"list": {"i": ["1", "1", "1", "1"]}}, "T": {"type": "DT_FLOAT"}, "explicit_paddings": {"list": {}}, "dilations": {"list": {"i": ["1", "1", "1", "1"]}}}}, {"name": "model_57/tf.nn.convolution_674/convolution", "op": "Conv2D", "input": ["model_57/tf.split_2/split:10", "model_57/tf.nn.convolution_674/convolution/filter"], "device": "/device:CPU:0", "attr": {"padding": {"s": "U0FNRQ=="}, "data_format": {"s": "TkhXQw=="}, "use_cudnn_on_gpu": {"b": true}, "strides": {"list": {"i": ["1", "1", "1", "1"]}}, "T": {"type": "DT_FLOAT"}, "explicit_paddings": {"list": {}}, "dilations": {"list": {"i": ["1", "1", "1", "1"]}}}}, {"name": "model_57/tf.nn.convolution_675/convolution", "op": "Conv2D", "input": ["model_57/tf.split_2/split:11", "model_57/tf.nn.convolution_675/convolution/filter"], "device": "/device:CPU:0", "attr": {"padding": {"s": "U0FNRQ=="}, "data_format": {"s": "TkhXQw=="}, "strides": {"list": {"i": ["1", "1", "1", "1"]}}, "use_cudnn_on_gpu": {"b": true}, "T": {"type": "DT_FLOAT"}, "explicit_paddings": {"list": {}}, "dilations": {"list": {"i": ["1", "1", "1", "1"]}}}}, {"name": "model_57/tf.nn.convolution_676/convolution", "op": "Conv2D", "input": ["model_57/tf.split_2/split:12", "model_57/tf.nn.convolution_676/convolution/filter"], "device": "/device:CPU:0", "attr": {"padding": {"s": "U0FNRQ=="}, "data_format": {"s": "TkhXQw=="}, "use_cudnn_on_gpu": {"b": true}, "strides": {"list": {"i": ["1", "1", "1", "1"]}}, "T": {"type": "DT_FLOAT"}, "explicit_paddings": {"list": {}}, "dilations": {"list": {"i": ["1", "1", "1", "1"]}}}}, {"name": "model_57/tf.nn.convolution_677/convolution", "op": "Conv2D", "input": ["model_57/tf.split_2/split:13", "model_57/tf.nn.convolution_677/convolution/filter"], "device": "/device:CPU:0", "attr": {"padding": {"s": "U0FNRQ=="}, "data_format": {"s": "TkhXQw=="}, "use_cudnn_on_gpu": {"b": true}, "strides": {"list": {"i": ["1", "1", "1", "1"]}}, "T": {"type": "DT_FLOAT"}, "explicit_paddings": {"list": {}}, "dilations": {"list": {"i": ["1", "1", "1", "1"]}}}}, {"name": "model_57/tf.nn.convolution_678/convolution", "op": "Conv2D", "input": ["model_57/tf.split_2/split:14", "model_57/tf.nn.convolution_678/convolution/filter"], "device": "/device:CPU:0", "attr": {"padding": {"s": "U0FNRQ=="}, "data_format": {"s": "TkhXQw=="}, "strides": {"list": {"i": ["1", "1", "1", "1"]}}, "use_cudnn_on_gpu": {"b": true}, "T": {"type": "DT_FLOAT"}, "explicit_paddings": {"list": {}}, "dilations": {"list": {"i": ["1", "1", "1", "1"]}}}}, {"name": "model_57/tf.nn.convolution_679/convolution", "op": "Conv2D", "input": ["model_57/tf.split_2/split:15", "model_57/tf.nn.convolution_679/convolution/filter"], "device": "/device:CPU:0", "attr": {"padding": {"s": "U0FNRQ=="}, "data_format": {"s": "TkhXQw=="}, "strides": {"list": {"i": ["1", "1", "1", "1"]}}, "use_cudnn_on_gpu": {"b": true}, "T": {"type": "DT_FLOAT"}, "explicit_paddings": {"list": {}}, "dilations": {"list": {"i": ["1", "1", "1", "1"]}}}}, {"name": "model_57/tf.nn.convolution_680/convolution", "op": "Conv2D", "input": ["model_57/tf.split_2/split:16", "model_57/tf.nn.convolution_680/convolution/filter"], "device": "/device:CPU:0", "attr": {"padding": {"s": "U0FNRQ=="}, "data_format": {"s": "TkhXQw=="}, "use_cudnn_on_gpu": {"b": true}, "strides": {"list": {"i": ["1", "1", "1", "1"]}}, "T": {"type": "DT_FLOAT"}, "explicit_paddings": {"list": {}}, "dilations": {"list": {"i": ["1", "1", "1", "1"]}}}}, {"name": "model_57/tf.nn.convolution_681/convolution", "op": "Conv2D", "input": ["model_57/tf.split_2/split:17", "model_57/tf.nn.convolution_681/convolution/filter"], "device": "/device:CPU:0", "attr": {"padding": {"s": "U0FNRQ=="}, "data_format": {"s": "TkhXQw=="}, "use_cudnn_on_gpu": {"b": true}, "strides": {"list": {"i": ["1", "1", "1", "1"]}}, "T": {"type": "DT_FLOAT"}, "explicit_paddings": {"list": {}}, "dilations": {"list": {"i": ["1", "1", "1", "1"]}}}}, {"name": "model_57/tf.nn.convolution_682/convolution", "op": "Conv2D", "input": ["model_57/tf.split_2/split:18", "model_57/tf.nn.convolution_682/convolution/filter"], "device": "/device:CPU:0", "attr": {"padding": {"s": "U0FNRQ=="}, "data_format": {"s": "TkhXQw=="}, "use_cudnn_on_gpu": {"b": true}, "strides": {"list": {"i": ["1", "1", "1", "1"]}}, "T": {"type": "DT_FLOAT"}, "explicit_paddings": {"list": {}}, "dilations": {"list": {"i": ["1", "1", "1", "1"]}}}}, {"name": "model_57/tf.nn.convolution_683/convolution", "op": "Conv2D", "input": ["model_57/tf.split_2/split:19", "model_57/tf.nn.convolution_683/convolution/filter"], "device": "/device:CPU:0", "attr": {"padding": {"s": "U0FNRQ=="}, "data_format": {"s": "TkhXQw=="}, "strides": {"list": {"i": ["1", "1", "1", "1"]}}, "use_cudnn_on_gpu": {"b": true}, "T": {"type": "DT_FLOAT"}, "explicit_paddings": {"list": {}}, "dilations": {"list": {"i": ["1", "1", "1", "1"]}}}}, {"name": "model_57/tf.nn.convolution_684/convolution", "op": "Conv2D", "input": ["model_57/tf.sp…
tion", "model_57/tf.nn.convolution_883/convolution", "model_57/tf.nn.convolution_884/convolution", "model_57/tf.nn.convolution_885/convolution", "model_57/tf.nn.convolution_886/convolution", "model_57/tf.nn.convolution_887/convolution", "model_57/tf.nn.convolution_888/convolution", "model_57/tf.nn.convolution_889/convolution", "model_57/tf.nn.convolution_890/convolution", "model_57/tf.nn.convolution_891/convolution", "model_57/tf.nn.convolution_892/convolution", "model_57/tf.nn.convolution_893/convolution", "model_57/tf.nn.convolution_894/convolution", "model_57/tf.nn.convolution_895/convolution", "model_57/tf.nn.convolution_896/convolution", "model_57/tf.nn.convolution_897/convolution", "model_57/tf.nn.convolution_898/convolution", "model_57/tf.nn.convolution_899/convolution", "model_57/tf.nn.convolution_900/convolution", "model_57/tf.nn.convolution_901/convolution", "model_57/tf.nn.convolution_902/convolution", "model_57/tf.nn.convolution_903/convolution", "model_57/tf.nn.convolution_904/convolution", "model_57/tf.nn.convolution_905/convolution", "model_57/tf.nn.convolution_906/convolution", "model_57/tf.nn.convolution_907/convolution", "model_57/tf.nn.convolution_908/convolution", "model_57/tf.nn.convolution_909/convolution", "model_57/tf.nn.convolution_910/convolution", "model_57/tf.nn.convolution_911/convolution", "model_57/tf.nn.convolution_912/convolution", "model_57/tf.nn.convolution_913/convolution", "model_57/tf.nn.convolution_914/convolution", "model_57/tf.nn.convolution_915/convolution", "model_57/tf.nn.convolution_916/convolution", "model_57/tf.nn.convolution_917/convolution", "model_57/tf.nn.convolution_918/convolution", "model_57/tf.nn.convolution_919/convolution", "model_57/tf.concat_44/concat/axis"], "attr": {"N": {"i": "256"}, "T": {"type": "DT_FLOAT"}, "Tidx": {"type": "DT_INT32"}}}, {"name": "model_57/tf.compat.v1.transpose_255/transpose", "op": "Transpose", "input": ["model_57/tf.reshape_42/Reshape", "model_57/tf.compat.v1.transpose_255/transpose/perm"], "attr": {"Tperm": {"type": "DT_INT32"}, "T": {"type": "DT_FLOAT"}}}, {"name": "model_57/tf.math.add_221/ArithmeticOptimizer/AddOpsRewrite_Leaf_1_Add", "op": "AddN", "input": ["model_57/tf.compat.v1.transpose_255/transpose", "model_57/tf.concat_44/concat"], "attr": {"N": {"i": "2"}, "T": {"type": "DT_FLOAT"}, "_grappler_ArithmeticOptimizer_AddOpsRewriteStage": {"b": true}}}, {"name": "model_57/tf.math.add_221/ArithmeticOptimizer/AddOpsRewrite_Add", "op": "AddV2", "input": ["model_57/tf.math.add_219/Add/y", "model_57/tf.math.add_221/ArithmeticOptimizer/AddOpsRewrite_Leaf_1_Add"], "attr": {"T": {"type": "DT_FLOAT"}, "_grappler_ArithmeticOptimizer_AddOpsRewriteStage": {"b": true}}}, {"name": "model_57/tf.math.add_222/Add", "op": "_FusedConv2D", "input": ["model_57/tf.math.add_221/ArithmeticOptimizer/AddOpsRewrite_Add", "model_57/tf.nn.convolution_920/convolution/filter", "model_57/tf.math.add_222/Add/y"], "device": "/device:CPU:0", "attr": {"num_host_args": {"i": "0"}, "data_format": {"s": "TkhXQw=="}, "filter_format": {"s": "SFdJTw=="}, "fused_ops": {"list": {"s": ["Qmlhc0FkZA=="]}}, "num_args": {"i": "1"}, "strides": {"list": {"i": ["1", "1", "1", "1"]}}, "TArgs": {"list": {"type": ["DT_FLOAT"]}}, "padding": {"s": "U0FNRQ=="}, "use_cudnn_on_gpu": {"b": true}, "leakyrelu_alpha": {"f": 0.2}, "epsilon": {"f": 0.0}, "T": {"type": "DT_FLOAT"}, "explicit_paddings": {"list": {}}, "dilations": {"list": {"i": ["1", "1", "1", "1"]}}}}, {"name": "model_57/tf.math.add_224/Add", "op": "AddV2", "input": ["model_57/tf.strided_slice_47/StridedSlice", "model_57/tf.math.add_222/Add"], "attr": {"T": {"type": "DT_FLOAT"}}}, {"name": "model_57/tf.math.add_225/Add", "op": "_FusedConv2D", "input": ["model_57/tf.math.add_224/Add", "model_57/tf.nn.convolution_921/convolution/filter", "model_57/tf.math.add_225/Add/y"], "device": "/device:CPU:0", "attr": {"num_host_args": {"i": "0"}, "data_format": {"s": "TkhXQw=="}, "filter_format": {"s": "SFdJTw=="}, "strides": {"list": {"i": ["1", "1", "1", "1"]}}, "num_args": {"i": "1"}, "fused_ops": {"list": {"s": ["Qmlhc0FkZA=="]}}, "TArgs": {"list": {"type": ["DT_FLOAT"]}}, "padding": {"s": "U0FNRQ=="}, "use_cudnn_on_gpu": {"b": true}, "leakyrelu_alpha": {"f": 0.2}, "epsilon": {"f": 0.0}, "T": {"type": "DT_FLOAT"}, "explicit_paddings": {"list": {}}, "dilations": {"list": {"i": ["1", "1", "1", "1"]}}}}, {"name": "model_57/tf.math.sigmoid_145/Sigmoid", "op": "Sigmoid", "input": ["model_57/tf.math.add_225/Add"], "attr": {"T": {"type": "DT_FLOAT"}}}, {"name": "model_57/tf.math.multiply_664/Mul", "op": "Mul", "input": ["model_57/tf.math.add_225/Add", "model_57/tf.math.sigmoid_145/Sigmoid"], "attr": {"T": {"type": "DT_FLOAT"}}}, {"name": "model_57/tf.nn.convolution_922/convolution", "op": "Conv2D", "input": ["model_57/tf.math.multiply_664/Mul", "model_57/tf.nn.convolution_922/convolution/filter"], "device": "/device:CPU:0", "attr": {"padding": {"s": "U0FNRQ=="}, "data_format": {"s": "TkhXQw=="}, "use_cudnn_on_gpu": {"b": true}, "strides": {"list": {"i": ["1", "1", "1", "1"]}}, "T": {"type": "DT_FLOAT"}, "explicit_paddings": {"list": {}}, "dilations": {"list": {"i": ["1", "1", "1", "1"]}}}}, {"name": "model_57/tf.math.add_228/ArithmeticOptimizer/AddOpsRewrite_Leaf_1_Add", "op": "AddN", "input": ["model_57/tf.math.add_224/Add", "model_57/tf.nn.convolution_922/convolution"], "attr": {"N": {"i": "2"}, "T": {"type": "DT_FLOAT"}, "_grappler_ArithmeticOptimizer_AddOpsRewriteStage": {"b": true}}}, {"name": "model_57/tf.math.add_228/ArithmeticOptimizer/AddOpsRewrite_Add", "op": "AddV2", "input": ["model_57/tf.math.add_226/Add/y", "model_57/tf.math.add_228/ArithmeticOptimizer/AddOpsRewrite_Leaf_1_Add"], "attr": {"T": {"type": "DT_FLOAT"}, "_grappler_ArithmeticOptimizer_AddOpsRewriteStage": {"b": true}}}, {"name": "model_57/tf.concat_45/concat", "op": "ConcatV2", "input": ["model_57/tf.strided_slice_46/StridedSlice", "model_57/tf.math.add_228/ArithmeticOptimizer/AddOpsRewrite_Add", "model_57/tf.concat_45/concat/axis"], "attr": {"N": {"i": "2"}, "T": {"type": "DT_FLOAT"}, "Tidx": {"type": "DT_INT32"}}}, {"name": "model_57/tf.math.add_229/Add", "op": "_FusedConv2D", "input": ["model_57/tf.concat_45/concat", "model_57/tf.nn.convolution_923/convolution/filter", "model_57/tf.math.add_229/Add/y"], "device": "/device:CPU:0", "attr": {"num_host_args": {"i": "0"}, "data_format": {"s": "TkhXQw=="}, "filter_format": {"s": "SFdJTw=="}, "fused_ops": {"list": {"s": ["Qmlhc0FkZA=="]}}, "num_args": {"i": "1"}, "strides": {"list": {"i": ["1", "1", "1", "1"]}}, "TArgs": {"list": {"type": ["DT_FLOAT"]}}, "padding": {"s": "U0FNRQ=="}, "use_cudnn_on_gpu": {"b": true}, "leakyrelu_alpha": {"f": 0.2}, "epsilon": {"f": 0.0}, "T": {"type": "DT_FLOAT"}, "explicit_paddings": {"list": {}}, "dilations": {"list": {"i": ["1", "1", "1", "1"]}}}}, {"name": "model_57/tf.math.sigmoid_146/Sigmoid", "op": "Sigmoid", "input": ["model_57/tf.math.add_229/Add"], "attr": {"T": {"type": "DT_FLOAT"}}}, {"name": "model_57/tf.math.multiply_670/Mul", "op": "Mul", "input": ["model_57/tf.math.add_229/Add", "model_57/tf.math.sigmoid_146/Sigmoid"], "attr": {"T": {"type": "DT_FLOAT"}}}, {"name": "model_57/tf.math.add_230/Add", "op": "_FusedConv2D", "input": ["model_57/tf.math.multiply_670/Mul", "model_57/tf.nn.convolution_924/convolution/filter", "model_57/tf.math.add_230/Add/y"], "device": "/device:CPU:0", "attr": {"num_host_args": {"i": "0"}, "data_format": {"s": "TkhXQw=="}, "filter_format": {"s": "SFdJTw=="}, "fused_ops": {"list": {"s": ["Qmlhc0FkZA=="]}}, "num_args": {"i": "1"}, "strides": {"list": {"i": ["1", "1", "1", "1"]}}, "TArgs": {"list": {"type": ["DT_FLOAT"]}}, "padding": {"s": "U0FNRQ=="}, "use_cudnn_on_gpu": {"b": true}, "leakyrelu_alpha": {"f": 0.2}, "epsilon": {"f": 0.0}, "T": {"type": "DT_FLOAT"}, "explicit_paddings": {"list": {}}, "dilations": {"list": {"i": ["1", "1", "1", "1"]}}}}, {"name": "model_57/tf.math.sigmoid_147/Sigmoid", "op": "Sigmoid", "input": ["model_57/tf.math.add_230/Add"], "attr": {"T": {"type": "DT_FLOAT"}}}, {"name": "model_57/tf.math.multiply_674/Mul", "op": "Mul", "input": ["model_57/tf.math.add_230/Add", "model_57/tf.math.sigmoid_147/Sigmoid"], "attr": {"T": {"type": "DT_FLOAT"}}}, {"name": "model_57/tf.math.reduce_mean_1/Mean", "op": "Mean", "input": ["model_57/tf.math.multiply_674/Mul", "model_57/tf.math.reduce_mean_1/Mean/reduction_indices"], "attr": {"T": {"type": "DT_FLOAT"}, "Tidx": {"type": "DT_INT32"}, "keep_dims": {"b": true}}}, {"name": "model_57/tf.compat.v1.transpose_262/transpose", "op": "Transpose", "input": ["model_57/tf.math.reduce_mean_1/Mean", "model_57/tf.compat.v1.transpose_262/transpose/perm"], "attr": {"Tperm": {"type": "DT_INT32"}, "T": {"type": "DT_FLOAT"}}}, {"name": "model_57/tf.reshape_43/Reshape", "op": "Reshape", "input": ["model_57/tf.compat.v1.transpose_262/transpose", "model_57/tf.reshape_43/Reshape/shape"], "attr": {"T": {"type": "DT_FLOAT"}, "Tshape": {"type": "DT_INT32"}}}, {"name": "model_57/tf.__operators__.add_1/AddV2", "op": "_FusedMatMul", "input": ["model_57/tf.reshape_43/Reshape", "model_57/tf.linalg.matmul_13/MatMul/b", "model_57/tf.__operators__.add_1/AddV2/y"], "device": "/device:CPU:0", "attr": {"transpose_a": {"b": false}, "transpose_b": {"b": false}, "fused_ops": {"list": {"s": ["Qmlhc0FkZA=="]}}, "leakyrelu_alpha": {"f": 0.2}, "num_args": {"i": "1"}, "epsilon": {"f": 0.0}, "T": {"type": "DT_FLOAT"}}}, {"name": "model_57/output0/wa/model.10/Softmax", "op": "Softmax", "input": ["model_57/tf.__operators__.add_1/AddV2"], "attr": {"T": {"type": "DT_FLOAT"}}}, {"name": "Identity", "op": "Identity", "input": ["model_57/output0/wa/model.10/Softmax"], "attr": {"T": {"type": "DT_FLOAT"}}}], "library": {}, "versions": {"producer": 2129}}, "weightsManifest": [{"paths": ["group1-shard1of6.bin", "group1-shard2of6.bin", "group1-shard3of6.bin", "group1-shard4of6.bin", "group1-shard5of6.bin", "group1-shard6of6.bin"], "weights": [{"name": "model_57/tf.strided_slice_46/StridedSlice/begin", "shape": [4], "dtype": "int32"}, {"name": "model_57/tf.strided_slice_46/StridedSlice/end", "shape": [4], "dtype": "int32"}, {"name": "model_57/tf.strided_slice_46/ones_like", "shape": [4], "dtype": "int32"}, {"name": "model_57/tf.math.add_226/Add/y", "shape": [256], "dtype": "float32"}, {"name": "model_57/tf.math.add_219/Add/y", "shape": [256], "dtype": "float32"}, {"name": "model_57/tf.strided_slice_48/StridedSlice/begin", "shape": [4], "dtype": "int32"}, {"name": "model_57/tf.strided_slice_48/StridedSlice/end", "shape": [4], "dtype": "int32"}, {"name": "model_57/tf.strided_slice_48/ones_like", "shape": [4], "dtype": "int32"}, {"name": "model_57/tf.strided_slice_49/StridedSlice/begin", "shape": [4], "dtype": "int32"}, {"name": "model_57/tf.strided_slice_49/StridedSlice/end", "shape": [4], "dtype": "int32"}, {"name": "model_57/tf.strided_slice_49/ones_like", "shape": [4], "dtype": "int32"}, {"name": "model_57/tf.math.multiply_656/Mul/y", "shape": [], "dtype": "float32"}, {"name": "model_57/tf.reshape_42/Reshape/shape", "shape": [4], "dtype": "int32"}, {"name": "model_57/tf.compat.v1.transpose_255/transpose/perm", "shape": [4], "dtype": "int32"}, {"name": "model_57/tf.nn.convolution_664/convolution/filter", "shape": [3, 3, 1, 1], "dtype": "float32"}, {"name": "model_57/tf.nn.convolution_665/convolution/filter", "shape": [3, 3, 1, 1], "dtype": "float32"}, {"name": "model_57/tf.nn.convolution_666/convolution/filter", "shape": [3, 3, 1, 1], "dtype": "float32"}, {"name": "model_57/tf.nn.convolution_667/convolution/filter", "shape": [3, 3, 1, 1], "dtype": "float32"}, {"name": "model_57/tf.nn.convolution_668/convolution/filter", "shape": [3, 3, 1, 1], "dtype": "float32"}, {"name": "model_57/tf.nn.convolution_669/convolution/filter", "shape": [3, 3, 1, 1], "dtype": "float32"}, {"name": "model_57/tf.nn.convolution_670/convolution/filter", "shape": [3, 3, 1, 1], "dtype": "float32"}, {"name": "model_57/tf.nn.convolution_671/convolution/filter", "shape": [3, 3, 1, 1], "dtype": "float32"}, {"name": "model_57/tf.nn.convolution_672/convolution/filter", "shape": [3, 3, 1, 1], "dtype": "float32"}, {"name": "model_57/tf.nn.convolution_673/convolution/filter", "shape": [3, 3, 1, 1], "dtype": "float32"}, {"name": "model_57/tf.nn.convolution_674/convolution/filter", "shape": [3, 3, 1, 1], "dtype": "float32"}, {"name": "model_57/tf.nn.convolution_675/convolution/filter", "shape": [3, 3, 1, 1], "dtype": "float32"}, {"name": "model_57/tf.nn.convolution_676/convolution/filter", "shape": [3, 3, 1, 1], "dtype": "float32"}, {"name": "model_57/tf.nn.convolution_677/convolution/filter", "shape": [3, 3, 1, 1], "dtype": "float32"}, {"name": "model_57/tf.nn.convolution_678/convolution/filter", "shape": [3, 3, 1, 1], "dtype": "float32"}, {"name": "model_57/tf.nn.convolution_679/convolution/filter", "shape": [3, 3, 1, 1], "dtype": "float32"}, {"name": "model_57/tf.nn.convolution_680/convolution/filter", "shape": [3, 3, 1, 1], "dtype": "float32"}, {"name": "model_57/tf.nn.convolution_681/convolution/filter", "shape": [3, 3, 1, 1], "dtype": "float32"}, {"name": "model_57/tf.nn.convolution_682/convolution/filter", "shape": [3, 3, 1, 1], "dtype": "float32"}, {"name": "model_57/tf.nn.convolution_683/convolution/filter", "shape": [3, 3, 1, 1], "dtype": "float32"}, {"name": "model_57/tf.nn.convolution_684/convolution/filter", "shape": [3, 3, 1, 1], "dtype": "float32"}, {"name": "model_57/tf.nn.convolution_685/convolution/filter", "shape": [3, 3, 1, 1], "dtype": "float32"}, {"name": "model_57/tf.nn.convolution_686/convolution/filter", "shape": [3, 3, 1, 1], "dtype": "float32"}, {"name": "model_57/tf.nn.convolution_687/convolution/filter", "shape": [3, 3, 1, 1], "dtype": "float32"}, {"name": "model_57/tf.nn.convolution_688/convolution/filter", "shape": [3, 3, 1, 1], "dtype": "float32"}, {"name": "model_57/tf.nn.convolution_689/convolution/filter", "shape": [3, 3, 1, 1], "dtype": "float32"}, {"name": "model_57/tf.nn.convolution_690/convolution/filter", "shape": [3, 3, 1, 1], "dtype": "float32"}, {"name": "model_57/tf.nn.convolution_691/convolution/filter", "shape": [3, 3, 1, 1], "dtype": "float32"}, {"name": "model_57/tf.nn.convolution_692/convolution/filter", "shape": [3, 3, 1, 1], "dtype": "float32"}, {"name": "model_57/tf.nn.convolution_693/convolution/filter", "shape": [3, 3, 1, 1], "dtype": "float32"}, {"name": "model_57/tf.nn.convolution_694/convolution/filter", "shape": [3, 3, 1, 1], "dtype": "float32"}, {"name": "model_57/tf.nn.convolution_695/convolution/filter", "shape": [3, 3, 1, 1], "dtype": "float32"}, {"name": "model_57/tf.nn.convolution_696/convolution/filter", "shape": [3, 3, 1, 1], "dtype": "float32"}, {"name": "model_57/tf.nn.convolution_697/convolution/filter", "shape": [3, 3, 1, 1], "dtype": "float32"}, {"name": "model_57/tf.nn.convolution_698/convolution/filter", "shape": [3, 3, 1, 1], "dtype": "float32"}, {"name": "model_57/tf.nn.convolution_699/convolution/filter", "shape": [3, 3, 1, 1], "dtype": "float32"}, {"name": "model_57/tf.nn.convolution_700/convolution/filter", "shape": [3, 3, 1, 1], "dtype": "float32"}, {"name": "model_57/tf.nn.convolution_701/convolution/filter", "shape": [3, 3, 1, 1], "dtype": "float32"}, {"name": "model_57/tf.nn.convolution_702/convolution/filter", "shape": [3, 3, 1, 1], "dtype": "float32"}, {"name": "model_57/tf.nn.convolution_703/convolution/filter", "shape": [3, 3, 1, 1], "dtype": "float32"}, {"name": "model_57/tf.nn.convolution_704/convolution/filter", "shape": [3, 3, 1, 1], "dtype": "float32"}, {"name": "model_57/tf.nn.convolution_705/convolution/filter", "shape": [3, 3, 1, 1], "dtype": "float32"}, {"name": "model_57/tf.nn.convolution_706/convolution/filter", "shape": [3, 3, 1, 1], "dtype": "float32"}, {"name": "model_57/tf.nn.convolution_707/convolution/filter", "shape": [3, 3, 1, 1], "dtype": "float32"}, {"name": "model_57/tf.nn.convolution_708/convolution/filter", "shape": [3, 3, 1, 1], "dtype": "float32"}, {"name": "model_57/tf.nn.convolution_709/convolution/filter", "shape": [3, 3, 1, 1], "dtype": "float32"}, {"name": "model_57/tf.nn.convolution_710/convolution/filter", "shape": [3, 3, 1, 1], "dtype": "float32"}, {"name": "model_57/tf.nn.convolution_711/convolution/filter", "shape": [3, 3, 1, 1], "dtype": "float32"}, {"name": "model_57/tf.nn.convolution_712/convolution/filter", "shape": [3, 3, 1, 1], "dtype": "float32"}, {"name": "model_57/tf.nn.convolution_713/convolution/filter", "shape": [3, 3, 1, 1], "dtype": "float32"}, {"name": "model_57/tf.nn.convolution_714/convolution/filter", "shape": [3, 3, 1, 1], "dtype": "float32"}, {"name": "model_57/tf.nn.convolution_715/convolution/filter", "shape": [3, 3, 1, 1], "dtype": "float32"}, {"name": "model_57/tf.nn.convolution_716/convolution/filter", "shape": [3, 3, 1, 1], "dtype": "float32"}, {"name": "model_57/tf.nn.convolution_717/convolution/filter", "shape": [3, 3, 1, 1], "dtype": "float32"}, {"name": "model_57/tf.nn.convolution_718/convolution/filter", "shape": [3, 3, 1, 1], "dtype": "float32"}, {"name": "model_57/tf.nn.convolution_719/convolution/filter", "shape": [3, 3, 1, 1], "dtype": "float32"}, {"name": "model_57/tf.nn.convolution_720/convolution/filter", "shape": [3, 3, 1, 1], "dtype": "float32"}, {"name": "model_57/tf.nn.convolution_721/convolution/filter", "shape": [3, 3, 1, 1], "dtype": "float32"}, {"name": "model_57/tf.nn.convolution_722/convolution/filter", "shape": [3, 3, 1, 1], "dtype": "float32"}, {"name": "model_57/tf.nn.convolution_723/convolution/filter", "shape": [3, 3, 1, 1], "dtype": "float32"}, {"name": "model_57/tf.nn.convolution_724/convolution/filter", "shape": [3, 3, 1, 1], "dtype": "float32"}, {"name": "model_57/tf.nn.convolution_725/convolution/filter", "shape": [3, 3, 1, 1], "dtype": "float32"}, {"name": "model_57/tf.nn.convolution_726/convolution/filter", "shape": [3, 3, 1, 1], "dtype": "float32"}, {"name": "model_57/tf.nn.convolution_727/convolution/filter", "shape": [3, 3, 1, 1], "dtype": "float32"}, {"name": "model_57/tf.nn.convolution_728/convolution/filter", "shape": [3, 3, 1, 1], "dtype": "float32"}, {"name": "model_57/tf.nn.convolution_729/convolution/filter", "shape": [3, 3, 1, 1], "dtype": "float32"}, {"name": "model_57/tf.nn.convolution_730/convolution/filter", "shape": [3, 3, 1, 1], "dtype": "float32"}, {"name": "model_57/tf.nn.convolution_731/convolution/filter", "shape": [3, 3, 1, 1], "dtype": "float32"}, {"name": "model_57/tf.nn.convolution_732/convolution/filter", "shape": [3, 3, 1, 1], "dtype": "float32"}, {"name": "model_57/tf.nn.convolution_733/convolution/filter", "shape": [3, 3, 1, 1], "dtype": "float32"}, {"name": "model_57/tf.nn.convolution_734/convolution/filter", "shape": [3, 3, 1, 1], "dtype": "float32"}, {"name": "model_57/tf.nn.convolution_735/convolution/filter", "shape": [3, 3, 1, 1], "dtype": "float32"}, {"name": "model_57/tf.nn.convolution_736/convolution/filter", "shape": [3, 3, 1, 1], "dtype": "float32"}, {"name": "model_57/tf.nn.convolution_737/convolution/filter", "shape": [3, 3, 1, 1], "dtype": "float32"}, {"name": "model_57/tf.nn.convolution_738/convolution/filter", "shape": [3, 3, 1, 1], "dtype": "float32"}, {"name": "model_57/tf.nn.convolution_739/convolution/filter", "shape": [3, 3, 1, 1], "dtype": "float32"}, {"name": "model_57/tf.nn.convolution_740/convolution/filter", "shape": [3, 3, 1, 1], "dtype": "float32"}, {"name": "model_57/tf.nn.convolution_741/convolution/filter", "shape": [3, 3, 1, 1], "dtype": "float32"}, {"name": "model_57/tf.nn.convolution_742/convolution/filter", "shape": [3, 3, 1, 1], "dtype": "float32"}, {"name": "model_57/tf.nn.convolution_743/convolution/filter", "shape": [3, 3, 1, 1], "dtype": "float32"}, {"name": "model_57/tf.nn.convolution_744/convolution/filter", "shape": [3, 3, 1, 1], "dtype": "float32"}, {"name": "model_57/tf.nn.convolution_745/convolution/filter", "shape": [3, 3, 1, 1], "dtype": "float32"}, {"name": "model_57/tf.nn.convolution_746/convolution/filter", "shape": [3, 3, 1, 1], "dtype": "float32"}, {"name": "model_57/tf.nn.convolution_747/convolution/filter", "shape": [3, 3, 1, 1], "dtype": "float32"}, {"name": "model_57/tf.nn.convolution_748/convolution/filter", "shape": [3, 3, 1, 1], "dtype": "float32"}, {"name": "model_57/tf.nn.convolution_749/convolution/filter", "shape": [3, 3, 1, 1], "dtype": "float32"}, {"name": "model_57/tf.nn.convolution_750/convolution/filter", "shape": [3, 3, 1, 1], "dtype": "float32"}, {"name": "model_57/tf.nn.convolution_751/convolution/filter", "shape": [3, 3, 1, 1], "dtype": "float32"}, {"name": "model_57/tf.nn.convolution_752/convolution/filter", "shape": [3, 3, 1, 1], "dtype": "float32"}, {"name": "model_57/tf.nn.convolution_753/convolution/filter", "shape": [3, 3, 1, 1], "dtype": "float32"}, {"name": "model_57/tf.nn.convolution_754/convolution/filter", "shape": [3, 3, 1, 1], "dtype": "float32"}, {"name": "model_57/tf.nn.convolution_755/convolution/filter", "shape": [3, 3, 1, 1], "dtype": "float32"}, {"name": "model_57/tf.nn.convolution_756/convolution/filter", "shape": [3, 3, 1, 1], "dtype": "float32"}, {"name": "model_57/tf.nn.convolution_757/convolution/filter", "shape": [3, 3, 1, 1], "dtype": "float32"}, {"name": "model_57/tf.nn.convolution_758/convolution/filter", "shape": [3, 3, 1, 1], "dtype": "float32"}, {"name": "model_57/tf.nn.convolution_759/convolution/filter", "shape": [3, 3, 1, 1], "dtype": "float32"}, {"name": "model_57/tf.nn.convolution_760/convolution/filter", "shape": [3, 3, 1, 1], "dtype": "float32"}, {"name": "model_57/tf.nn.convolution_761/convolution/filter", "shape": [3, 3, 1, 1], "dtype": "float32"}, {"name": "model_57/tf.nn.convolution_762/convolution/filter", "shape": [3, 3, 1, 1], "dtype": "float32"}, {"name": "model_57/tf.nn.convolution_763/convolution/filter", "shape": [3, 3, 1, 1], "dtype": "float32"}, {"name": "model_57/tf.nn.convolution_764/convolution/filter", "shape": [3, 3, 1, 1], "dtype": "float32"}, {"name": "model_57/tf.nn.convolution_765/convolution/filter", "shape": [3, 3, 1, 1], "dtype": "float32"}, {"name": "model_57/tf.nn.convolution_766/convolution/filter", "shape": [3, 3, 1, 1], "dtype": "float32"}, {"name": "model_57/tf.nn.convolution_767/convolution/filter", "shape": [3, 3, 1, 1], "dtype": "float32"}, {"name": "model_57/tf.nn.convolution_768/convolution/filter", "shape": [3, 3, 1, 1], "dtype": "float32"}, {"name": "model_57/tf.nn.convolution_769/convolution/filter", "shape": [3, 3, 1, 1], "dtype": "float32"}, {"name": "model_57/tf.nn.convolution_770/convolution/filter", "shape": [3, 3, 1, 1], "dtype": "float32"}, {"name": "model_57/tf.nn.convolution_771/convolution/filter", "shape": [3, 3, 1, 1], "dtype": "float32"}, {"name": "model_57/tf.nn.convolution_772/convolution/filter", "shape": [3, 3, 1, 1], "dtype": "float32"}, {"name": "model_57/tf.nn.convolution_773/convolution/filter", "shape": [3, 3, 1, 1], "dtype": "float32"}, {"name": "model_57/tf.nn.convolution_774/convolution/filter", "shape": [3, 3, 1, 1], "dtype": "float32"}, {"name": "model_57/tf.nn.convolution_775/convolution/filter", "shape": [3, 3, 1, 1], "dtype": "float32"}, {"name": "model_57/tf.nn.convolution_776/convolution/filter", "shape": [3, 3, 1, 1], "dtype": "float32"}, {"name": "model_57/tf.nn.convolution_777/convolution/filter", "shape": [3, 3, 1, 1], "dtype": "float32"}, {"name": "model_57/tf.nn.convolution_778/convolution/filter", "shape": [3, 3, 1, 1], "dtype": "float32"}, {"name": "model_57/tf.nn.convolution_779/convolution/filter", "shape": [3, 3, 1, 1], "dtype": "float32"}, {"name": "model_57/tf.nn.convolution_780/convolution/filter", "shape": [3, 3, 1, 1], "dtype": "float32"}, {"name": "model_57/tf.nn.convolution_781/convolution/filter", "shape": [3, 3, 1, 1], "dtype": "float32"}, {"name": "model_57/tf.nn.convolution_782/convolution/filter", "shape": [3, 3, 1, 1], "dtype": "float32"}, {"name": "model_57/tf.nn.convolution_783/convolution/filter", "shape": [3, 3, 1, 1], "dtype": "float32"}, {"name": "model_57/tf.nn.convolution_784/convolution/filter", "shape": [3, 3, 1, 1], "dtype": "float32"}, {"name": "model_57/tf.nn.convolution_785/convolution/filter", "shape": [3, 3, 1, 1], "dtype": "float32"}, {"name": "model_57/tf.nn.convolution_786/convolution/filter", "shape": [3, 3, 1, 1], "dtype": "float32"}, {"name": "model_57/tf.nn.convolution_787/convolution/filter", "shape": [3, 3, 1, 1], "dtype": "float32"}, {"name": "model_57/tf.nn.convolution_788/convolution/filter", "shape": [3, 3, 1, 1], "dtype": "float32"}, {"name": "model_57/tf.nn.convolution_789/convolution/filter", "shape": [3, 3, 1, 1], "dtype": "float32"}, {"name": "model_57/tf.nn.convolution_790/convolution/filter", "shape": [3, 3, 1, 1], "dtype": "float32"}, {"name": "model_57/tf.nn.convolution_791/convolution/filter", "shape": [3, 3, 1, 1], "dtype": "float32"}, {"name": "model_57/tf.nn.convolution_792/convolution/filter", "shape": [3, 3, 1, 1], "dtype": "float32"}, {"name": "model_57/tf.nn.convolution_793/convolution/filter", "shape": [3, 3, 1, 1], "dtype": "float32"}, {"name": "model_57/tf.nn.convolution_794/convolution/filter", "shape": [3, 3, 1, 1], "dtype": "float32"}, {"name": "model_57/tf.nn.convolution_795/convolution/filter", "shape": [3, 3, 1, 1], "dtype": "float32"}, {"name": "model_57/tf.nn.convolution_796/convolution/filter", "shape": [3, 3, 1, 1], "dtype": "float32"}, {"name": "model_57/tf.nn.convolution_797/convolution/filter", "shape": [3, 3, 1, 1], "dtype": "float32"}, {"name": "model_57/tf.nn.convolution_798/convolution/filter", "shape": [3, 3, 1, 1], "dtype": "float32"}, {"name": "model_57/tf.nn.convolution_799/convolution/filter", "shape": [3, 3, 1, 1], "dtype": "float32"}, {"name": "model_57/tf.nn.convolution_800/convolution/filter", "shape": [3, 3, 1, 1], "dtype": "float32"}, {"name": "model_57/tf.nn.convolution_801/convolution/filter", "shape": [3, 3, 1, 1], "dtype": "float32"}, {"name": "model_57/tf.nn.convolution_802/convolution/filter", "shape": [3, 3, 1, 1], "dtype": "float32"}, {"name": "model_57/tf.nn.convolution_803/convolution/filter", "shape": [3, 3, 1, 1], "dtype": "float32"}, {"name": "model_57/tf.nn.convolution_804/convolution/filter", "shape": [3, 3, 1, 1], "dtype": "float32"}, {"name": "model_57/tf.nn.convolution_805/convolution/filter", "shape": [3, 3, 1, 1], "dtype": "float32"}, {"name": "model_57/tf.nn.convolution_806/convolution/filter", "shape": [3, 3, 1, 1], "dtype": "float32"}, {"name": "model_57/tf.nn.convolution_807/convolution/filter", "shape": [3, 3, 1, 1], "dtype": "float32"}, {"name": "model_57/tf.nn.convolution_808/convolution/filter", "shape": [3, 3, 1, 1], "dtype": "float32"}, {"name": "model_57/tf.nn.convolution_809/convolution/filter", "shape": [3, 3, 1, 1], "dtype": "float32"}, {"name": "model_57/tf.nn.convolution_810/convolution/filter", "shape": [3, 3, 1, 1], "dtype": "float32"}, {"name": "model_57/tf.nn.convolution_811/convolution/filter", "shape": [3, 3, 1, 1], "dtype": "float32"}, {"name": "model_57/tf.nn.convolution_812/convolution/filter", "shape": [3, 3, 1, 1], "dtype": "float32"}, {"name": "model_57/tf.nn.convolution_813/convolution/filter", "shape": [3, 3, 1, 1], "dtype": "float32"}, {"name": "model_57/tf.nn.convolution_814/convolution/filter", "shape": [3, 3, 1, 1], "dtype": "float32"}, {"name": "model_57/tf.nn.convolution_815/convolution/filter", "shape": [3, 3, 1, 1], "dtype": "float32"}, {"name": "model_57/tf.nn.convolution_816/convolution/filter", "shape": [3, 3, 1, 1], "dtype": "float32"}, {"name": "model_57/tf.nn.convolution_817/convolution/filter", "shape": [3, 3, 1, 1], "dtype": "float32"}, {"name": "model_57/tf.nn.convolution_818/convolution/filter", "shape": [3, 3, 1, 1], "dtype": "float32"}, {"name": "model_57/tf.nn.convolution_819/convolution/filter", "shape": [3, 3, 1, 1], "dtype": "float32"}, {"name": "model_57/tf.nn.convolution_820/convolution/filter", "shape": [3, 3, 1, 1], "dtype": "float32"}, {"name": "model_57/tf.nn.convolution_821/convolution/filter", "shape": [3, 3, 1, 1], "dtype": "float32"}, {"name": "model_57/tf.nn.convolution_822/convolution/filter", "shape": [3, 3, 1, 1], "dtype": "float32"}, {"name": "model_57/tf.nn.convolution_823/convolution/filter", "shape": [3, 3, 1, 1], "dtype": "float32"}, {"name": "model_57/tf.nn.convolution_824/convolution/filter", "shape": [3, 3, 1, 1], "dtype": "float32"}, {"name": "model_57/tf.nn.convolution_825/convolution/filter", "shape": [3, 3, 1, 1], "dtype": "float32"}, {"name": "model_57/tf.nn.convolution_826/convolution/filter", "shape": [3, 3, 1, 1], "dtype": "float32"}, {"name": "model_57/tf.nn.convolution_827/convolution/filter", "shape": [3, 3, 1, 1], "dtype": "float32"}, {"name": "model_57/tf.nn.convolution_828/convolution/filter", "shape": [3, 3, 1, 1], "dtype": "float32"}, {"name": "model_57/tf.nn.convolution_829/convolution/filter", "shape": [3, 3, 1, 1], "dtype": "float32"}, {"name": "model_57/tf.nn.convolution_830/convolution/filter", "shape": [3, 3, 1, 1], "dtype": "float32"}, {"name": "model_57/tf.nn.convolution_831/convolution/filter", "shape": [3, 3, 1, 1], "dtype": "float32"}, {"name": "model_57/tf.nn.convolution_832/convolution/filter", "shape": [3, 3, 1, 1], "dtype": "float32"}, {"name": "model_57/tf.nn.convolution_833/convolution/filter", "shape": [3, 3, 1, 1], "dtype": "float32"}, {"name": "model_57/tf.nn.convolution_834/convolution/filter", "shape": [3, 3, 1, 1], "dtype": "float32"}, {"name": "model_57/tf.nn.convolution_835/convolution/filter", "shape": [3, 3, 1, 1], "dtype": "float32"}, {"name": "model_57/tf.nn.convolution_836/convolution/filter", "shape": [3, 3, 1, 1], "dtype": "float32"}, {"name": "model_57/tf.nn.convolution_837/convolution/filter", "shape": [3, 3, 1, 1], "dtype": "float32"}, {"name": "model_57/tf.nn.convolution_838/convolution/filter", "shape": [3, 3, 1, 1], "dtype": "float32"}, {"name": "model_57/tf.nn.convolution_839/convolution/filter", "shape": [3, 3, 1, 1], "dtype": "float32"}, {"name": "model_57/tf.nn.convolution_840/convolution/filter", "shape": [3, 3, 1, 1], "dtype": "float32"}, {"name": "model_57/tf.nn.convolution_841/convolution/filter", "shape": [3, 3, 1, 1], "dtype": "float32"}, {"name": "model_57/tf.nn.convolution_842/convolution/filter", "shape": [3, 3, 1, 1], "dtype": "float32"}, {"name": "model_57/tf.nn.convolution_843/convolution/filter", "shape": [3, 3, 1, 1], "dtype": "float32"}, {"name": "model_57/tf.nn.convolution_844/convolution/filter", "shape": [3, 3, 1, 1], "dtype": "float32"}, {"name": "model_57/tf.nn.convolution_845/convolution/filter", "shape": [3, 3, 1, 1], "dtype": "float32"}, {"name": "model_57/tf.nn.convolution_846/convolution/filter", "shape": [3, 3, 1, 1], "dtype": "float32"}, {"name": "model_57/tf.nn.convolution_847/convolution/filter", "shape": [3, 3, 1, 1], "dtype": "float32"}, {"name": "model_57/tf.nn.convolution_848/convolution/filter", "shape": [3, 3, 1, 1], "dtype": "float32"}, {"name": "model_57/tf.nn.convolution_849/convolution/filter", "shape": [3, 3, 1, 1], "dtype": "float32"}, {"name": "model_57/tf.nn.convolution_850/convolution/filter", "shape": [3, 3, 1, 1], "dtype": "float32"}, {"name": "model_57/tf.nn.convolution_851/convolution/filter", "shape": [3, 3, 1, 1], "dtype": "float32"}, {"name": "model_57/tf.nn.convolution_852/convolution/filter", "shape": [3, 3, 1, 1], "dtype": "float32"}, {"name": "model_57/tf.nn.convolution_853/convolution/filter", "shape": [3, 3, 1, 1], "dtype": "float32"}, {"name": "model_57/tf.nn.convolution_854/convolution/filter", "shape": [3, 3, 1, 1], "dtype": "float32"}, {"name": "model_57/tf.nn.convolution_855/convolution/filter", "shape": [3, 3, 1, 1], "dtype": "float32"}, {"name": "model_57/tf.nn.convolution_856/convolution/filter", "shape": [3, 3, 1, 1], "dtype": "float32"}, {"name": "model_57/tf.nn.convolution_857/convolution/filter", "shape": [3, 3, 1, 1], "dtype": "float32"}, {"name": "model_57/tf.nn.convolution_858/convolution/filter", "shape": [3, 3, 1, 1], "dtype": "float32"}, {"name": "model_57/tf.nn.convolution_859/convolution/filter", "shape": [3, 3, 1, 1], "dtype": "float32"}, {"name": "model_57/tf.nn.convolution_860/convolution/filter", "shape": [3, 3, 1, 1], "dtype": "float32"}, {"name": "model_57/tf.nn.convolution_861/convolution/filter", "shape": [3, 3, 1, 1], "dtype": "float32"}, {"name": "model_57/tf.nn.convolution_862/convolution/filter", "shape": [3, 3, 1, 1], "dtype": "float32"}, {"name": "model_57/tf.nn.convolution_863/convolution/filter", "shape": [3, 3, 1, 1], "dtype": "float32"}, {"name": "model_57/tf.nn.convolution_864/convolution/filter", "shape": [3, 3, 1, 1], "dtype": "float32"}, {"name": "model_57/tf.nn.convolution_865/convolution/filter", "shape": [3, 3, 1, 1], "dtype": "float32"}, {"name": "model_57/tf.nn.convolution_866/convolution/filter", "shape": [3, 3, 1, 1], "dtype": "float32"}, {"name": "model_57/tf.nn.convolution_867/convolution/filter", "shape": [3, 3, 1, 1], "dtype": "float32"}, {"name": "model_57/tf.nn.convolution_868/convolution/filter", "shape": [3, 3, 1, 1], "dtype": "float32"}, {"name": "model_57/tf.nn.convolution_869/convolution/filter", "shape": [3, 3, 1, 1], "dtype": "float32"}, {"name": "model_57/tf.nn.convolution_870/convolution/filter", "shape": [3, 3, 1, 1], "dtype": "float32"}, {"name": "model_57/tf.nn.convolution_871/convolution/filter", "shape": [3, 3, 1, 1], "dtype": "float32"}, {"name": "model_57/tf.nn.convolution_872/convolution/filter", "shape": [3, 3, 1, 1], "dtype": "float32"}, {"name": "model_57/tf.nn.convolution_873/convolution/filter", "shape": [3, 3, 1, 1], "dtype": "float32"}, {"name": "model_57/tf.nn.convolution_874/convolution/filter", "shape": [3, 3, 1, 1], "dtype": "float32"}, {"name": "model_57/tf.nn.convolution_875/convolution/filter", "shape": [3, 3, 1, 1], "dtype": "float32"}, {"name": "model_57/tf.nn.convolution_876/convolution/filter", "shape": [3, 3, 1, 1], "dtype": "float32"}, {"name": "model_57/tf.nn.convolution_877/convolution/filter", "shape": [3, 3, 1, 1], "dtype": "float32"}, {"name": "model_57/tf.nn.convolution_878/convolution/filter", "shape": [3, 3, 1, 1], "dtype": "float32"}, {"name": "model_57/tf.nn.convolution_879/convolution/filter", "shape": [3, 3, 1, 1], "dtype": "float32"}, {"name": "model_57/tf.nn.convolution_880/convolution/filter", "shape": [3, 3, 1, 1], "dtype": "float32"}, {"name": "model_57/tf.nn.convolution_881/convolution/filter", "shape": [3, 3, 1, 1], "dtype": "float32"}, {"name": "model_57/tf.nn.convolution_882/convolution/filter", "shape": [3, 3, 1, 1], "dtype": "float32"}, {"name": "model_57/tf.nn.convolution_883/convolution/filter", "shape": [3, 3, 1, 1], "dtype": "float32"}, {"name": "model_57/tf.nn.convolution_884/convolution/filter", "shape": [3, 3, 1, 1], "dtype": "float32"}, {"name": "model_57/tf.nn.convolution_885/convolution/filter", "shape": [3, 3, 1, 1], "dtype": "float32"}, {"name": "model_57/tf.nn.convolution_886/convolution/filter", "shape": [3, 3, 1, 1], "dtype": "float32"}, {"name": "model_57/tf.nn.convolution_887/convolution/filter", "shape": [3, 3, 1, 1], "dtype": "float32"}, {"name": "model_57/tf.nn.convolution_888/convolution/filter", "shape": [3, 3, 1, 1], "dtype": "float32"}, {"name": "model_57/tf.nn.convolution_889/convolution/filter", "shape": [3, 3, 1, 1], "dtype": "float32"}, {"name": "model_57/tf.nn.convolution_890/convolution/filter", "shape": [3, 3, 1, 1], "dtype": "float32"}, {"name": "model_57/tf.nn.convolution_891/convolution/filter", "shape": [3, 3, 1, 1], "dtype": "float32"}, {"name": "model_57/tf.nn.convolution_892/convolution/filter", "shape": [3, 3, 1, 1], "dtype": "float32"}, {"name": "model_57/tf.nn.convolution_893/convolution/filter", "shape": [3, 3, 1, 1], "dtype": "float32"}, {"name": "model_57/tf.nn.convolution_894/convolution/filter", "shape": [3, 3, 1, 1], "dtype": "float32"}, {"name": "model_57/tf.nn.convolution_895/convolution/filter", "shape": [3, 3, 1, 1], "dtype": "float32"}, {"name": "model_57/tf.nn.convolution_896/convolution/filter", "shape": [3, 3, 1, 1], "dtype": "float32"}, {"name": "model_57/tf.nn.convolution_897/convolution/filter", "shape": [3, 3, 1, 1], "dtype": "float32"}, {"name": "model_57/tf.nn.convolution_898/convolution/filter", "shape": [3, 3, 1, 1], "dtype": "float32"}, {"name": "model_57/tf.nn.convolution_899/convolution/filter", "shape": [3, 3, 1, 1], "dtype": "float32"}, {"name": "model_57/tf.nn.convolution_900/convolution/filter", "shape": [3, 3, 1, 1], "dtype": "float32"}, {"name": "model_57/tf.nn.convolution_901/convolution/filter", "shape": [3, 3, 1, 1], "dtype": "float32"}, {"name": "model_57/tf.nn.convolution_902/convolution/filter", "shape": [3, 3, 1, 1], "dtype": "float32"}, {"name": "model_57/tf.nn.convolution_903/convolution/filter", "shape": [3, 3, 1, 1], "dtype": "float32"}, {"name": "model_57/tf.nn.convolution_904/convolution/filter", "shape": [3, 3, 1, 1], "dtype": "float32"}, {"name": "model_57/tf.nn.convolution_905/convolution/filter", "shape": [3, 3, 1, 1], "dtype": "float32"}, {"name": "model_57/tf.nn.convolution_906/convolution/filter", "shape": [3, 3, 1, 1], "dtype": "float32"}, {"name": "model_57/tf.nn.convolution_907/convolution/filter", "shape": [3, 3, 1, 1], "dtype": "float32"}, {"name": "model_57/tf.nn.convolution_908/convolution/filter", "shape": [3, 3, 1, 1], "dtype": "float32"}, {"name": "model_57/tf.nn.convolution_909/convolution/filter", "shape": [3, 3, 1, 1], "dtype": "float32"}, {"name": "model_57/tf.nn.convolution_910/convolution/filter", "shape": [3, 3, 1, 1], "dtype": "float32"}, {"name": "model_57/tf.nn.convolution_911/convolution/filter", "shape": [3, 3, 1, 1], "dtype": "float32"}, {"name": "model_57/tf.nn.convolution_912/convolution/filter", "shape": [3, 3, 1, 1], "dtype": "float32"}, {"name": "model_57/tf.nn.convolution_913/convolution/filter", "shape": [3, 3, 1, 1], "dtype": "float32"}, {"name": "model_57/tf.nn.convolution_914/convolution/filter", "shape": [3, 3, 1, 1], "dtype": "float32"}, {"name": "model_57/tf.nn.convolution_915/convolution/filter", "shape": [3, 3, 1, 1], "dtype": "float32"}, {"name": "model_57/tf.nn.convolution_916/convolution/filter", "shape": [3, 3, 1, 1], "dtype": "float32"}, {"name": "model_57/tf.nn.convolution_917/convolution/filter", "shape": [3, 3, 1, 1], "dtype": "float32"}, {"name": "model_57/tf.nn.convolution_918/convolution/filter", "shape": [3, 3, 1, 1], "dtype": "float32"}, {"name": "model_57/tf.split_2/split/split_dim", "shape": [], "dtype": "int32"}, {"name": "model_57/tf.strided_slice_44/ones_like/tensor", "shape": [4], "dtype": "int32"}, {"name": "model_57/tf.strided_slice_44/StridedSlice/end", "shape": [4], "dtype": "int32"}, {"name": "model_57/tf.strided_slice_44/ones_like", "shape": [4], "dtype": "int32"}, {"name": "model_57/tf.nn.convolution_654/convolution/filter", "shape": [1, 1, 256, 128], "dtype": "float32"}, {"name": "model_57/tf.math.add_205/Add/y", "shape": [128], "dtype": "float32"}, {"name": "model_57/tf.nn.convolution_656/convolution/filter", "shape": [3, 3, 128, 128], "dtype": "float32"}, {"name": "model_57/tf.math.add_207/Add/y", "shape": [128], "dtype": "float32"}, {"name": "model_57/tf.nn.convolution_657/convolution/filter", "shape": [3, 3, 128, 128], "dtype": "float32"}, {"name": "model_57/tf.math.add_208/Add/y", "shape": [128], "dtype": "float32"}, {"name": "model_57/tf.nn.convolution_658/convolution/filter", "shape": [3, 3, 128, 128], "dtype": "float32"}, {"name": "model_57/tf.math.add_211/Add/y", "shape": [128], "dtype": "float32"}, {"name": "model_57/tf.nn.convolution_659/convolution/filter", "shape": [3, 3, 128, 128], "dtype": "float32"}, {"name": "model_57/tf.math.add_212/Add/y", "shape": [128], "dtype": "float32"}, {"name": "model_57/tf.strided_slice_42/ones_like/tensor", "shape": [4], "dtype": "int32"}, {"name": "model_57/tf.strided_slice_42/StridedSlice/end", "shape": [4], "dtype": "int32"}, {"name": "model_57/tf.strided_slice_42/ones_like", "shape": [4], "dtype": "int32"}, {"name": "model_57/tf.nn.convolution_644/convolution/filter", "shape": [1, 1, 128, 64], "dtype": "float32"}, {"name": "model_57/tf.math.add_191/Add/y", "shape": [64], "dtype": "float32"}, {"name": "model_57/tf.nn.convolution_646/convolution/filter", "shape": [3, 3, 64, 64], "dtype": "float32"}, {"name": "model_57/tf.math.add_193/Add/y", "shape": [64], "dtype": "float32"}, {"name": "model_57/tf.nn.convolution_647/convolution/filter", "shape": [3, 3, 64, 64], "dtype": "float32"}, {"name": "model_57/tf.math.add_194/Add/y", "shape": [64], "dtype": "float32"}, {"name": "model_57/tf.nn.convolution_648/convolution/filter", "shape": [3, 3, 64, 64], "dtype": "float32"}, {"name": "model_57/tf.math.add_197/Add/y", "shape": [64], "dtype": "float32"}, {"name": "model_57/tf.nn.convolution_649/convolution/filter", "shape": [3, 3, 64, 64], "dtype": "float32"}, {"name": "model_57/tf.math.add_198/Add/y", "shape": [64], "dtype": "float32"}, {"name": "model_57/tf.strided_slice_40/ones_like/tensor", "shape": [4], "dtype": "int32"}, {"name": "model_57/tf.strided_slice_40/StridedSlice/end", "shape": [4], "dtype": "int32"}, {"name": "model_57/tf.strided_slice_40/ones_like", "shape": [4], "dtype": "int32"}, {"name": "model_57/tf.strided_slice_38/ones_like/tensor", "shape": [4], "dtype": "int32"}, {"name": "model_57/tf.strided_slice_38/StridedSlice/end", "shape": [4], "dtype": "int32"}, {"name": "model_57/tf.strided_slice_38/ones_like", "shape": [4], "dtype": "int32"}, {"name": "model_57/tf.compat.v1.pad_12/Pad/paddings", "shape": [4, 2], "dtype": "int32"}, {"name": "model_57/tf.nn.convolution_631/convolution/filter", "shape": [3, 3, 3, 32], "dtype": "float32"}, {"name": "model_57/tf.math.add_174/Add/y", "shape": [32], "dtype": "float32"}, {"name": "model_57/tf.compat.v1.pad_13/Pad/paddings", "shape": [4, 2], "dtype": "int32"}, {"name": "model_57/tf.nn.convolution_632/convolution/filter", "shape": [3, 3, 32, 64], "dtype": "float32"}, {"name": "model_57/tf.math.add_175/Add/y", "shape": [64], "dtype": "float32"}, {"name": "model_57/tf.nn.convolution_633/convolution/filter", "shape": [1, 1, 64, 64], "dtype": "float32"}, {"name": "model_57/tf.math.add_176/Add/y", "shape": [64], "dtype": "float32"}, {"name": "model_57/tf.strided_slice_39/ones_like/tensor", "shape": [4], "dtype": "int32"}, {"name": "model_57/tf.strided_slice_39/StridedSlice/end", "shape": [4], "dtype": "int32"}, {"name": "model_57/tf.strided_slice_39/ones_like", "shape": [4], "dtype": "int32"}, {"name": "model_57/tf.nn.convolution_634/convolution/filter", "shape": [3, 3, 32, 16], "dtype": "float32"}, {"name": "model_57/tf.math.add_177/Add/y", "shape": [16], "dtype": "float32"}, {"name": "model_57/tf.nn.convolution_635/convolution/filter", "shape": [3, 3, 16, 32], "dtype": "float32"}, {"name": "model_57/tf.math.add_178/Add/y", "shape": [32], "dtype": "float32"}, {"name": "model_57/tf.concat_38/concat/axis", "shape": [], "dtype": "int32"}, {"name": "model_57/tf.nn.convolution_636/convolution/filter", "shape": [1, 1, 96, 128], "dtype": "float32"}, {"name": "model_57/tf.math.add_181/Add/y", "shape": [128], "dtype": "float32"}, {"name": "model_57/tf.compat.v1.pad_14/Pad/paddings", "shape": [4, 2], "dtype": "int32"}, {"name": "model_57/tf.nn.convolution_637/convolution/filter", "shape": [3, 3, 128, 128], "dtype": "float32"}, {"name": "model_57/tf.math.add_182/Add/y", "shape": [128], "dtype": "float32"}, {"name": "model_57/tf.nn.convolution_638/convolution/filter", "shape": [1, 1, 128, 128], "dtype": "float32"}, {"name": "model_57/tf.math.add_183/Add/y", "shape": [128], "dtype": "float32"}, {"name": "model_57/tf.strided_slice_41/ones_like/tensor", "shape": [4], "dtype": "int32"}, {"name": "model_57/tf.strided_slice_41/StridedSlice/end", "shape": [4], "dtype": "int32"}, {"name": "model_57/tf.strided_slice_41/ones_like", "shape": [4], "dtype": "int32"}, {"name": "model_57/tf.nn.convolution_639/convolution/filter", "shape": [3, 3, 64, 32], "dtype": "float32"}, {"name": "model_57/tf.math.add_184/Add/y", "shape": [32], "dtype": "float32"}, {"name": "model_57/tf.nn.convolution_640/convolution/filter", "shape": [3, 3, 32, 64], "dtype": "float32"}, {"name": "model_57/tf.math.add_185/Add/y", "shape": [64], "dtype": "float32"}, {"name": "model_57/tf.concat_39/concat/axis", "shape": [], "dtype": "int32"}, {"name": "model_57/tf.nn.convolution_641/convolution/filter", "shape": [1, 1, 192, 256], "dtype": "float32"}, {"name": "model_57/tf.math.add_188/Add/y", "shape": [256], "dtype": "float32"}, {"name": "model_57/tf.compat.v1.pad_15/Pad/paddings", "shape": [4, 2], "dtype": "int32"}, {"name": "model_57/tf.nn.convolution_642/convolution/filter", "shape": [3, 3, 256, 256], "dtype": "float32"}, {"name": "model_57/tf.math.add_189/Add/y", "shape": [256], "dtype": "float32"}, {"name": "model_57/tf.nn.convolution_643/convolution/filter", "shape": [1, 1, 256, 256], "dtype": "float32"}, {"name": "model_57/tf.math.add_190/Add/y", "shape": [256], "dtype": "float32"}, {"name": "model_57/tf.strided_slice_43/ones_like/tensor", "shape": [4], "dtype": "int32"}, {"name": "model_57/tf.strided_slice_43/StridedSlice/end", "shape": [4], "dtype": "int32"}, {"name": "model_57/tf.strided_slice_43/ones_like", "shape": [4], "dtype": "int32"}, {"name": "model_57/tf.nn.convolution_645/convolution/filter", "shape": [1, 1, 128, 64], "dtype": "float32"}, {"name": "model_57/tf.math.add_192/Add/y", "shape": [64], "dtype": "float32"}, {"name": "model_57/tf.concat_40/concat/axis", "shape": [], "dtype": "int32"}, {"name": "model_57/tf.nn.convolution_650/convolution/filter", "shape": [1, 1, 128, 128], "dtype": "float32"}, {"name": "model_57/tf.math.add_201/Add/y", "shape": [128], "dtype": "float32"}, {"name": "model_57/tf.concat_41/concat/axis", "shape": [], "dtype": "int32"}, {"name": "model_57/tf.nn.convolution_651/convolution/filter", "shape": [1, 1, 384, 256], "dtype": "float32"}, {"name": "model_57/tf.math.add_202/Add/y", "shape": [256], "dtype": "float32"}, {"name": "model_57/tf.compat.v1.pad_16/Pad/paddings", "shape": [4, 2], "dtype": "int32"}, {"name": "model_57/tf.nn.convolution_652/convolution/filter", "shape": [3, 3, 256, 512], "dtype": "float32"}, {"name": "model_57/tf.math.add_203/Add/y", "shape": [512], "dtype": "float32"}, {"name": "model_57/tf.nn.convolution_653/convolution/filter", "shape": [1, 1, 512, 512], "dtype": "float32"}, {"name": "model_57/tf.math.add_204/Add/y", "shape": [512], "dtype": "float32"}, {"name": "model_57/tf.strided_slice_45/ones_like/tensor", "shape": [4], "dtype": "int32"}, {"name": "model_57/tf.strided_slice_45/StridedSlice/end", "shape": [4], "dtype": "int32"}, {"name": "model_57/tf.strided_slice_45/ones_like", "shape": [4], "dtype": "int32"}, {"name": "model_57/tf.nn.convolution_655/convolution/filter", "shape": [1, 1, 256, 128], "dtype": "float32"}, {"name": "model_57/tf.math.add_206/Add/y", "shape": [128], "dtype": "float32"}, {"name": "model_57/tf.concat_42/concat/axis", "shape": [], "dtype": "int32"}, {"name": "model_57/tf.nn.convolution_660/convolution/filter", "shape": [1, 1, 256, 256], "dtype": "float32"}, {"name": "model_57/tf.math.add_215/Add/y", "shape": [256], "dtype": "float32"}, {"name": "model_57/tf.concat_43/concat/axis", "shape": [], "dtype": "int32"}, {"name": "model_57/tf.nn.convolution_661/convolution/filter", "shape": [1, 1, 768, 512], "dtype": "float32"}, {"name": "model_57/tf.math.add_216/Add/y", "shape": [512], "dtype": "float32"}, {"name": "model_57/tf.nn.convolution_662/convolution/filter", "shape": [1, 1, 512, 512], "dtype": "float32"}, {"name": "model_57/tf.math.add_217/Add/y", "shape": [512], "dtype": "float32"}, {"name": "model_57/tf.strided_slice_47/StridedSlice/begin", "shape": [4], "dtype": "int32"}, {"name": "model_57/tf.strided_slice_47/StridedSlice/end", "shape": [4], "dtype": "int32"}, {"name": "model_57/tf.strided_slice_47/ones_like", "shape": [4], "dtype": "int32"}, {"name": "model_57/tf.nn.convolution_663/convolution/filter", "shape": [1, 1, 256, 512], "dtype": "float32"}, {"name": "model_57/tf.math.add_218/Add/y", "shape": [512], "dtype": "float32"}, {"name": "model_57/tf.compat.v1.transpose_240/transpose/perm", "shape": [4], "dtype": "int32"}, {"name": "model_57/tf.reshape_36/Reshape/shape", "shape": [4], "dtype": "int32"}, {"name": "model_57/tf.strided_slice_50/StridedSlice/begin", "shape": [4], "dtype": "int32"}, {"name": "model_57/tf.strided_slice_50/StridedSlice/end", "shape": [4], "dtype": "int32"}, {"name": "model_57/tf.strided_slice_50/ones_like", "shape": [4], "dtype": "int32"}, {"name": "model_57/tf.reshape_39/Reshape/shape", "shape": [4], "dtype": "int32"}, {"name": "model_57/tf.compat.v1.transpose_248/transpose/perm", "shape": [4], "dtype": "int32"}, {"name": "model_57/tf.nn.convolution_919/convolution/filter", "shape": [3, 3, 1, 1], "dtype": "float32"}, {"name": "model_57/tf.concat_44/concat/axis", "shape": [], "dtype": "int32"}, {"name": "model_57/tf.nn.convolution_920/convolution/filter", "shape": [1, 1, 256, 256], "dtype": "float32"}, {"name": "model_57/tf.math.add_222/Add/y", "shape": [256], "dtype": "float32"}, {"name": "model_57/tf.nn.convolution_921/convolution/filter", "shape": [1, 1, 256, 512], "dtype": "float32"}, {"name": "model_57/tf.math.add_225/Add/y", "shape": [512], "dtype": "float32"}, {"name": "model_57/tf.nn.convolution_922/convolution/filter", "shape": [1, 1, 512, 256], "dtype": "float32"}, {"name": "model_57/tf.concat_45/concat/axis", "shape": [], "dtype": "int32"}, {"name": "model_57/tf.nn.convolution_923/convolution/filter", "shape": [1, 1, 512, 512], "dtype": "float32"}, {"name": "model_57/tf.math.add_229/Add/y", "shape": [512], "dtype": "float32"}, {"name": "model_57/tf.nn.convolution_924/convolution/filter", "shape": [1, 1, 512, 1280], "dtype": "float32"}, {"name": "model_57/tf.math.add_230/Add/y", "shape": [1280], "dtype": "float32"}, {"name": "model_57/tf.math.reduce_mean_1/Mean/reduction_indices", "shape": [2], "dtype": "int32"}, {"name": "model_57/tf.compat.v1.transpose_262/transpose/perm", "shape": [4], "dtype": "int32"}, {"name": "model_57/tf.reshape_43/Reshape/shape", "shape": [2], "dtype": "int32"}, {"name": "model_57/tf.linalg.matmul_13/MatMul/b", "shape": [1280, 9], "dtype": "float32"}, {"name": "model_57/tf.__operators__.add_1/AddV2/y", "shape": [9], "dtype": "float32"}]}]}